WREF-app/app/src/main/assets/crop_yield_prediction_model.tflite (tflite, 650764 bytes, 27 tensors)

lstm_4/lstm_cell_4/bias f4 [512]
00000000: 274e 153e d625 0b3d 9914 b33d eb5f 03bd
00000010: 1279 6dbd 526c b33b ccf6 d5bd 7545 5cbe
00000020: 2924 69be b558 423d 7e54 e93c 9269 4ebc
00000030: 7093 933d 2996 62bc fe2c 1d3d 98ae 833a
00000040: f484 f5bd 23cb c8bd e683 a63c c823 113e
00000050: b787 c73c d28d 1a3c 87c8 d4bc e93a a7bd
00000060: 82ae 293e 58f7 853d cb3c 4abe 5a6b f13d
00000070: 0730 223d 855e 09be 6517 003d 9bbf cabd
00000080: a99b 27bc 5190 03be a528 bd3d 40c2 233c
00000090: 5b76 c93d 8a2a 82be db66 bfbe 1845 633e
000000a0: 3429 4c3e 5fcb fb3c ce08 633d e6e2 ebbd
000000b0: 1b96 6dbd 6ba9 23be dd09 b9bd 3865 cdbd
000000c0: dc1a 43be cd4c 43bd abf7 cdbd 26c4 0d3d
000000d0: 4d59 863d 8d25 613d 04dd c9bd bafa cebc
000000e0: e160 6dbc 9781 d43d f499 17be 54a4 fd3d
000000f0: 01f4 8dbd c7fd 6c3d 7a97 d53d 964f 14be
00000100: 75ce df3d febb 2a3e 859c 82bd f6fd 2e3e
00000110: 703c d9bd cd1c aabd c9e4 b73b db92 a63d
00000120: c240 483e 8f1c 29bd 01f2 8bbc 1744 323e
00000130: 539f 8f3c 04e1 c53d 1fe9 2f3d 9903 bf3c
00000140: a216 e1bd b1b9 243e 7511 183d 8be0 f3bd
00000150: 536f 803e fc77 86be 2f37 903c dbc8 c03d
00000160: 5f4f 043e bb60 10be a64b ccbe fa5b ef3d
00000170: 263a ee3d f2f9 eb3c 22c8 0ebd ceaa e33c
00000180: a94c 91be f3e4 99bd 0d6a 3f3d 98af 20be
00000190: 8827 f33d bf38 053d f7b5 21be d3a4 0cbe
000001a0: cf08 ad3a 4a50 913d fe93 583e 2207 0d3d
000001b0: dbf9 b93d a54c ebbd 2b9a 7ebc 77e7 453e
000001c0: eb1c edbd 59a4 243e 6005 7ebe cb8f 1cbe
000001d0: 483c 92bc 66cd fc3d 4b5d b0bd 06ae 913d
000001e0: 8e1e 073e 84ca 953c dfed 2e3e 2a67 31be
000001f0: b990 b5bd 9dad 143e 740c 1e3e beb3 233e
00000200: 5b85 a23f 6926 873f d9d5 903f d01c 753f
00000210: 114c 623f 82f3 793f f25e 633f f1cf 3a3f
00000220: 8cad 233f d4f6 883f 3240 8b3f 13a4 813f
00000230: 3051 883f c519 7a3f 8623 883f a049 803f
00000240: 88f6 533f 59ac 613f 8337 863f d7c6 9d3f
00000250: a843 873f c116 803f d9c1 793f 6977 583f
00000260: b613 a03f 4ad6 8a3f 5b0c 413f 2589 973f
00000270: 173e 8b3f 370f 4b3f 5cad 4e3f 90f1 5c3f
00000280: 2176 783f c98b 5c3f 8565 903f 87fe 833f
00000290: ea0a 973f 44a6 1e3f 4d71 103f fa53 a73f
000002a0: 7a33 a43f 0df2 853f e6c8 873f 07f8 4c3f
000002b0: 3555 6a3f 8fc8 473f dcb3 613f 3181 5b3f
000002c0: 9231 553f 6bbb 6b3f 3f61 633f 046c 893f
000002d0: db13 893f da32 8a3f b0ce 663f 325b 743f
000002e0: ddd7 6c3f f891 993f b5c3 4e3f cfc5 923f
000002f0: 6dd5 653f 388e 8a3f 7073 933f 1cf1 493f
00000300: a176 8a3f 0461 9f3f 2ca2 683f 20a8 9f3f
00000310: 73da 5c3f 3e25 653f f98e 8a3f 27e5 8b3f
00000320: 8b32 a63f 49bd 703f b7e1 603f a426 a13f
00000330: bf1a 833f 1815 953f 2f0c 8a3f 14c2 813f
00000340: 9449 5c3f d208 a03f c9d1 883f f0bd 513f
00000350: 4daa b03f 1864 273f fcc3 803f 126e 8f3f
00000360: 615c 963f 177e 503f b757 f63e 8653 943f
00000370: 807e 943f 02f5 823f bae1 7e3f 9b80 803f
00000380: c740 363f 44fd 543f 9824 903f e038 393f
00000390: 8e80 963f 2321 8e3f 2934 403f 4e18 503f
000003a0: 921a 773f a815 8b3f fb2d a33f 2750 8a3f
000003b0: 7fdb 963f 2e2d 593f b0f1 7d3f 793a 9f3f
000003c0: 83a5 553f bf7c 9b3f 77b7 263f d7d2 4b3f
000003d0: a56f 783f 3c03 993f 61c7 773f b942 8f3f
000003e0: 9651 973f ed73 833f 4a3e a43f 038b 423f
000003f0: 960f 613f 2b1d 973f 8eeb 8a3f 18d8 9e3f
0.14580594 0.03397163 0.08744163 -0.032073896 -0.05797679 0.0054755593 -0.104474634 -0.21510871
-0.227677 0.04744788 0.028482672 -0.012598412 0.07205856 -0.013829746 0.038372986 0.001004654
-0.119882494 -0.0980437 0.020326566 0.14173806 0.024356706 0.009433227 -0.025974525 -0.08165533
0.16570476 0.06541318 -0.19749753 0.11788054 0.039596584 -0.13414963 0.03127231 -0.09899827
-0.010229983 -0.12848021 0.09236268 0.009995043 0.09837028 -0.2542308 -0.3738316 0.22194326
0.19937593 0.030736623 0.05542832 -0.11517887 -0.05800448 -0.15982597 -0.090350844 -0.100290716
-0.19053215 -0.047680665 -0.100570045 0.03461089 0.065600015 0.05496745 -0.098566085 -0.02526604
-0.01448843 0.1037628 -0.14804822 0.12384859 -0.06931306 0.05785921 0.104292825 -0.14483485
0.109280504 0.16673276 -0.0637751 0.17089066 -0.10607231 -0.083062746 0.00561199 0.08133479
0.19555953 -0.041287 -0.01708317 0.17408787 0.017532026 0.09662059 0.04294693 0.023317145
-0.10990645 0.1608646 0.037126023 -0.119080625 0.25084934 -0.26263416 0.017604439 0.0941331
0.12920903 -0.140994 -0.39901465 0.11687465 0.11632185 0.028805707 -0.03485883 0.027791407
-0.283788 -0.07514372 0.046731997 -0.15691984 0.11872774 0.03252482 -0.1579207 -0.1373475
0.0013201478 0.07095392 0.21150205 0.03443063 0.09080859 -0.11489228 -0.015539686 0.19326578
-0.11577781 0.16078319 -0.24806738 -0.15289228 -0.01785101 0.12343864 -0.08611544 0.071132705
0.1319525 0.018285044 0.17082928 -0.1732451 -0.08865494 0.14519353 0.15434438 0.15986535
1.2696947 1.0558597 1.1315261 0.9574709 0.8839732 0.9763719 0.8881675 0.72973543
0.63936687 1.0700326 1.0878966 1.0128196 1.0649776 0.9769557 1.0635841 1.0022469
0.8279805 0.88153607 1.0485691 1.2326306 1.0567522 1.0006944 0.97561413 0.84557205
1.2506015 1.0846646 0.7540948 1.1838728 1.0878323 0.7932009 0.80733275 0.86306095
0.9705525 0.86150795 1.1280981 1.031205 1.1800206 0.6197245 0.56422883 1.3072503
1.2828209 1.0464493 1.0608184 0.8006596 0.91536266 0.78040403 0.8816507 0.85744005
0.83278763 0.9208285 0.8882026 1.0736089 1.0709184 1.0796769 0.9015913 0.95451653
0.9251688 1.1997671 0.80767375 1.1466616 0.89778787 1.0824652 1.1519604 0.7888353
1.0817453 1.2451482 0.90872455 1.2473183 0.8627083 0.8950995 1.0824882 1.0929307
1.2984174 0.94038826 0.87844414 1.2589917 1.0242537 1.1647062 1.0784968 1.0137353
0.8604977 1.2502692 1.0689021 0.81930447 1.3801972 0.65387106 1.005981 1.1205466
1.1746942 0.814424 0.48113796 1.1587989 1.1601105 1.023102 0.9956318 1.0039247
0.7119259 0.8319895 1.1261168 0.7235241 1.1757982 1.1103863 0.7507959 0.81287086
0.9652492 1.0865984 1.2748407 1.080571 1.1785735 0.84834564 0.9919691 1.243972
0.83455676 1.2147444 0.65123695 0.7961859 0.97045356 1.1954112 0.96788603 1.1192237
1.1821773 1.0269753 1.2831509 0.75993365 0.8791441 1.1805776 1.0853136 1.2409697

embedding_4/embeddings f4 [540, 64]
00000000: 3b4b 843f 9d36 a2bf 0afe 0740 d8a2 e9bf
00000010: 6b0e c2be 57ce 0ec0 2a9d 2ebf b24d 6b3f
00000020: b0df 8a3d 5eb9 abbe edff c63f 8c1d a1bf
00000030: 2a90 683f aab2 90bf 0ff2 1c3f a950 92bf
00000040: eb11 8a3e af14 1f3f 0714 7b3f 4969 e03f
00000050: 6110 563e 6a9f 2cbf 6617 40bf 4fb6 8dbe
00000060: 7d1a b4be 6a77 0940 4766 47be 3f72 bc3f
00000070: 5111 f23e 6fce 3d3f ddc4 9b3e ef94 603d
00000080: 43c6 123f 9309 acbf 48c4 153f c9ab 543f
00000090: 31ae edbd 3a51 573e db11 8c3f ad62 ca3e
000000a0: db1e 1040 7516 cf3f bf76 823c d7cc cb3f
000000b0: f63d 21c0 ae6c 67bf 4e4a 1dbf 0bd0 c13f
000000c0: 58ca 78be 44c5 313f 4df5 06c0 e5fd cebe
000000d0: 4401 49bf a190 a6be b4a0 bdbe e426 633f
000000e0: 29f4 08bf 93a4 00bf 5d3e 0f3f 3c8b 1f3f
000000f0: 0e5e 393d 7bd5 2840 930e 8d3f 5ce0 b33f
00000100: 37ea ce3e 46db 2a3f 6ccd 82bf 0329 83bf
00000110: 959f 89bd c598 3d3d c9c7 58be 3b79 d13e
00000120: 06e6 a9be 11e3 043f 4df0 bcbe b6c9 4b3f
00000130: 4ee9 26bd 9bd0 643c 238b 29bf 593f 41bf
00000140: 5cb4 8e3e 01ba 3c3e 71fd 62bf 0a9b 1ebf
00000150: 3b53 ccbd 2345 cabd 9509 9c3f 081a 173f
00000160: 86e8 abbe db70 07c0 e794 65be 2733 96bf
00000170: af49 5cbe a842 48bf 7f98 38be 017a 46be
00000180: 737c 7f3f 305b 4bbe 932e 6cbe 481d b0bf
00000190: 5a6e 2d3f bbf5 7dbf f93a 3ebf e681 5e3f
000001a0: 3ea8 66bf b662 a3bf e37c 563d 226a a7bf
000001b0: da6a f83f 6f17 573e 15e1 a1bf ec4e 37bc
000001c0: e98c bcbe 9ff7 7b3e 73ad 4f3f e0da 5a3f
000001d0: c1ba 593e e3b3 d4be f602 cdbe fab8 b0be
000001e0: 591d e4bc 5e41 713d 54c4 51be f000 86be
000001f0: 0954 6f3c 1fa9 bbbf 8719 cb3e 902b 07bf
00000200: 5d43 153d 0ccc 27bc e090 12bd bafe cabc
00000210: 730e 1abd 43c3 40bd cd3f 2b3d 137e abbc
00000220: 24c3 543c 6266 983c e016 afbc 74f6 2d3c
00000230: 30d6 54bb eebd ca3c 3a6b aa3c 92a1 fb3c
00000240: 7a84 c3bc d0e3 aa3b e2a2 ef3c d0ac 4cbd
00000250: b1d0 2c3d 92b4 bc3c 093f 083d 834b 483d
00000260: 006a 7139 8099 1abd a96a 0f3d a049 28bd
00000270: b2a2 a03c d0ec 64bb 30c2 31bb 46c6 a83c
00000280: 1722 0e3d 5098 9bbb 9a99 4abd 1af5 90bc
00000290: e95b 323d 7249 eb3c 66d3 83bc b41f 043c
000002a0: 605a 2fbb f4de 78bc a330 273d 6909 4c3d
000002b0: 001a 62bc 12b9 a03c 287c 75bc 222c 883c
000002c0: f25a ff3c d4b3 83bc 62f8 e53c e679 9b3c
000002d0: 1861 c9bb b37a dabc a05b f0ba 40fb f6bc
000002e0: 63b5 493d acd0 8ebc ba35 e4bc 0386 4a3d
000002f0: 8758 b4bc 2099 87bc bafe a6bc eed8 953c
00000300: 9702 2c3d b01a 9c3b 1dfb 423d cd6f fabc
00000310: 34ea 603c 9a91 b5bc 37f4 2ebd f1e7 0a3d
00000320: 62c8 f03c e897 913b 6ea7 ee3c 8700 d2bc
00000330: 18f4 d63b 03af 333d 0d4b b9bc 4cda 46bc
00000340: 731d 253d ca0d 1fbd a65a 8abc 5739 3c3d
00000350: b950 343d 98e8 98bb 97f8 0d3d 3db3 303d
00000360: 316e 313d 2dc4 123d 4026 ecbc cd9e d1bc
00000370: 86d6 89bc 7afc ca3c c241 ea3c 0199 263d
00000380: 6045 243b 6990 4b3d 007a b6bb 0025 e73b
00000390: e0b0 bebc b97d 443d eeee 803c e6c2 87bc
000003a0: c0be 33bd 98e9 a4bb e8d5 8f3b 9daa 45bd
000003b0: d0cb 733b 6849 f43b a068 563b 191f 133d
000003c0: 5231 d83c ce3f e73c 5874 3ebc b3aa aebc
000003d0: f440 53bc 3070 c7bb e2ff fe3c 86d7 b13c
000003e0: 29c4 0e3d 9999 133d ee5b b23c 52f7 d93c
000003f0: dcd8 4f3c a361 26bd 2d60 133d 1841 f03b
1.0335459 -1.2672917 2.1248803 -1.8252821 -0.37901625 -2.231344 -0.68208563 0.9191543
0.06780946 -0.3353986 1.5546852 -1.2587142 0.90844977 -1.1304524 0.6130685 -1.1430866
0.26966795 0.62140936 0.98077434 1.753213 0.20904686 -0.67430747 -0.75035703 -0.27678153
-0.3517646 2.1479135 -0.1947261 1.4722365 0.47278836 0.7414312 0.30423632 0.054829534
0.57333773 -1.3440422 0.58502626 0.83074623 -0.1160549 0.21027079 1.0942949 0.3952841
2.2518833 1.6178728 0.015925763 1.5921887 -2.5194068 -0.9040021 -0.61441505 1.5141615
-0.24295938 0.6944163 -2.108722 -0.4042808 -0.78517556 -0.32532218 -0.3703667 0.8873122
-0.5349756 -0.5025112 0.55954534 0.6232183 0.045255713 2.6380298 1.1020073 1.4052844
0.40413067 0.66740835 -1.021894 -1.0246891 -0.06719891 0.04628827 -0.21169962 0.40912804
-0.33183306 0.51908976 -0.36902085 0.7960466 -0.04074984 0.013965751 -0.6622793 -0.75487286
0.27871978 0.1843033 -0.8866797 -0.6195532 -0.099768125 -0.09876468 1.2190424 0.59024096
-0.3357584 -2.1162632 -0.22420083 -1.173436 -0.21512483 -0.7822671 -0.18026923 -0.19382478
0.9979927 -0.19859004 -0.23064642 -1.3758936 0.6774651 -0.9920308 -0.74308735 0.8691696
-0.9010047 -1.2764499 0.052365195 -1.3079264 1.9407609 0.21005033 -1.2646815 -0.01118825
-0.36826256 0.24606179 0.8112404 0.85490227 0.21262647 -0.41543493 -0.40041322 -0.34516126
-0.027846025 0.05890023 -0.2048505 -0.2617259 0.014607438 -1.4660987 0.39667913 -0.52800846
0.036441196 -0.01024152 -0.035782695 -0.024779666 -0.037611436 -0.047061216 0.041808892 -0.02093414
0.012985978 0.018603507 -0.021373212 0.010617841 -0.0032476299 0.024748769 0.020803083 0.030716691
-0.02386688 0.0052151456 0.029252473 -0.049969494 0.04219121 0.023035321 0.03326324 0.04890014
0.00023023039 -0.037744045 0.03501383 -0.04108584 0.01960883 -0.003493119 -0.0027123801 0.020602357
0.03470048 -0.0047483817 -0.049462892 -0.017694999 0.043544684 0.028721545 -0.016092014 0.008064199
-0.0026756749 -0.015189875 0.040817868 0.04981366 -0.013800144 0.019619498 -0.014983214 0.016622607
0.031171296 -0.01607696 0.02807254 0.018979024 -0.0061456077 -0.026669836 -0.0018337853 -0.030149102
0.04924525 -0.017433487 -0.02785765 0.04944421 -0.02201487 -0.016552508 -0.020385135 0.018291917
0.041994657 0.0047639236 0.04760276 -0.030570889 0.013727713 -0.022164155 -0.04271337 0.033912603
0.029392425 0.0044431575 0.029132571 -0.025635017 0.00655986 0.043868076 -0.022618795 -0.012137007
0.040311288 -0.03883151 -0.016888928 0.04595312 0.044022296 -0.004666399 0.034660902 0.043139685
0.043317977 0.03583162 -0.028826833 -0.025588417 -0.016825926 0.024778593 0.028595809 0.04067326
0.0025065765 0.049698267 -0.0055687428 0.0070539713 -0.0232777 0.04797146 0.01573893 -0.016572427
-0.043883085 -0.0050327294 0.0043895133 -0.048258413 0.003720034 0.00745504 0.003271617 0.03591833
0.026390705 0.028228667 -0.011624418 -0.02132163 -0.012893904 -0.006086372 0.031127874 0.021709215
0.03485504 0.036035154 0.021772351 0.02660719 0.012685981 -0.040620457 0.035980392 0.0073319785

dense_21/bias f4 [16]
00000000: 77fa d5be 2180 f03d 7eb5 c6bf 7b5a d6bd
00000010: 04ca de3d 6b07 13bf fb53 0c3f 1101 a4bf
00000020: 5b4a 593d eff1 033d a62c fa3d adab 9abe
00000030: 8385 73be 3fa2 193e 768f 69be f2b7 593f
-0.41792652 0.11743189 -1.5524137 -0.104664765 0.10878375 -0.57433194 0.54815644 -1.2812825
0.053049427 0.032213148 0.12215547 -0.30209103 -0.237814 0.15003298 -0.22808632 0.85046303

dense_19/bias f4 [64]
00000000: f8ff ff35 6e0a 6840 e0de dabf d3b9 f3be
00000010: f7ff df35 4c87 4039 46a0 4abd 380b b3bf
00000020: fe4d 013a 28f4 533d 0000 0000 3db1 3341
00000030: a278 303d 2740 2e40 bdbe e13d 005c a03d
00000040: de1b 40c1 06c5 5b3d 5468 2fbd 453b 14b7
00000050: f1d3 4b3b 0ae3 4c3c f226 a040 0000 0000
00000060: 0000 0000 771e 1b36 4e10 4939 e6d2 f4bc
00000070: 9399 99b5 5d66 a636 4e87 3437 4a36 d3be
00000080: b1f3 7040 c312 cb3d e496 04b9 f3ff 7fb6
00000090: 9399 1935 51f1 853d af0c ae36 c5cc 4c33
000000a0: 82c1 91bd aedc 96bc 0a2f 09bc 96da abbf
000000b0: fbe3 aabd 8164 103d ccdb d6b3 32d7 0040
000000c0: 7063 5a3b e6dc 643a b739 d03c 9a12 f63c
000000d0: 777d 09be 1076 4d3e c5cc 4cb5 6a9b 8540
000000e0: 56f9 8a3d c9ad 80bc 5d2d 8dbe 0366 b53c
000000f0: 61c5 8a3c 04c8 ae3d aefc daba eacf de3f
1.9073477e-06 3.6256366 -1.7099266 -0.4760271 1.668929e-06 0.00018360949 -0.049469255 -1.3987799
0.0004932581 0.051746517 0.0 11.230771 0.043083794 2.7226655 0.110227086 0.078300476
-12.0068035 0.053654693 -0.042824104 -8.835287e-06 0.0031101669 0.012505302 5.004754 0.0
0.0 2.3114533e-06 0.00019174928 -0.02988572 -1.1444084e-06 4.959102e-06 1.0760339e-05 -0.41252357
3.7648737 0.09915688 -0.00012644712 -3.8146943e-06 5.722042e-07 0.06540168 5.1870807e-06 4.7683688e-08
-0.07116987 -0.018415775 -0.008373031 -1.3426082 -0.08344265 0.035252098 -1.00051324e-07 2.0131345
0.003332343 0.0008730426 0.025418146 0.030038167 -0.13426767 0.20064569 -7.62939e-07 4.1752214
0.06785838 -0.015707867 -0.27573672 0.02214337 0.01693982 0.08534244 -0.0016707384 1.74072

dense_16/bias f4 [128]
00000000: 26ac 7c3d 7e9f 50be d2e4 3a3e 924e b8be
00000010: 97ed 943d ff19 d23d 1c61 9f3e 6c54 28be
00000020: 7529 d43c 0af3 1b3d 301c 9a3c f4c5 70be
00000030: 144b 43be 0000 0000 7bc1 c33d 5808 6dbe
00000040: 60cd 6a3d eb1c ec3d 0000 0000 1ed6 5b3e
00000050: b358 a7be e7d2 a73d 418a 6b3d 2359 bd3d
00000060: f9a8 84bc 4f8d 02be 0502 173f 9c4b 1abe
00000070: 1d68 2e3e d16f dc3e 5086 243e d66e 0fbd
00000080: 992b b6bc 30e4 efbd 0000 0000 bc3b babd
00000090: 0000 0000 13df c4bd ede7 c5bd 73ae ad3d
000000a0: 4c5d b5bb 6b12 393d b794 6abd a415 d33d
000000b0: 5c67 13be e0e1 34be 5841 753b e8fd 953e
000000c0: 3c69 8dbe 90c8 3cbb 2ca4 8b3e b239 d43c
000000d0: 0000 0000 eb53 6dbc 227e f03d fe43 ab3d
000000e0: 8020 02bd 7840 c63d 6c46 df3d 277a c53d
000000f0: 9873 97bc 5439 a03e 4334 eebd da5a f23e
00000100: 17c3 3e3e ae40 033e 82f0 35bc 1126 f03d
00000110: f3ea f43b 4869 403d 46d4 87bd 82cd 043e
00000120: 688a 2a3e 36c9 51bc 7500 133f 11fe 62be
00000130: abf5 f3be f3fb 393d 876a 1fbd 79dc 92be
00000140: bd95 0dbd 37da 29be e650 763e bcbd 72bd
00000150: f2ee f83d 7850 a1bd b88a 503e fc26 6a3b
00000160: 6b9d 953c 0000 0000 0f10 cabd 1903 e23d
00000170: 5eab c83d 0000 0000 2992 c53d 0182 0bbe
00000180: e11b d63e a24f cfbd bfac 14bc 2942 c1bc
00000190: 6572 aebc 12c2 13bf d12e 31be 0000 0000
000001a0: 0000 0000 cc5a 9fbe 321b 823e 6dd2 7fbe
000001b0: 70e2 88be 5863 5f3d 5664 133e 2659 3a3d
000001c0: 514f 8c3e 4f3d 1cbb 9552 ba3c dbb5 143e
000001d0: 8f1c 323e ff98 96bd 5b5f 97be 6358 96bd
000001e0: e6b1 0e3f 6fe1 383d 0000 0000 0000 0000
000001f0: d2ce 8c3e c4f6 8cbe 1959 8d3d 8f4f 13be
0.06168761 -0.20373341 0.1825135 -0.35997444 0.07271879 0.102588646 0.31128776 -0.16438454
0.025898675 0.038073577 0.018812269 -0.23513013 -0.19071609 0.0 0.09558388 -0.23147714
0.057324767 0.11528953 0.0 0.21468398 -0.3268486 0.08194523 0.057504896 0.09245517
-0.016193854 -0.12749217 0.58987457 -0.15067905 0.17031904 0.4305406 0.16066861 -0.03501781
-0.022237586 -0.11713445 0.0 -0.09093425 0.0 -0.096128605 -0.09663377 0.08480539
-0.0055348035 0.04518358 -0.05727073 0.10306862 -0.14394897 -0.1766429 0.003742298 0.29295278
-0.2761935 -0.0028806068 0.2727369 0.025906418 0.0 -0.01448534 0.11742808 0.08362578
-0.031769276 0.09680265 0.10902104 0.09642439 -0.018487737 0.31293738 -0.11631062 0.4733494
0.18629108 0.12817642 -0.011104705 0.117260106 0.007474297 0.046975404 -0.06632285 0.1296902
0.1665436 -0.01280432 0.5742257 -0.22167231 -0.47648367 0.045406293 -0.03891995 -0.28683832
-0.03456663 -0.16587149 0.24054298 -0.059262976 0.1215495 -0.07876676 0.20365417 0.0035728803
0.01826354 0.0 -0.09866344 0.11035747 0.09798311 0.0 0.096470185 -0.13623811
0.41818145 -0.10122611 -0.009074389 -0.023591118 -0.021294782 -0.57718 -0.17303015 0.0
0.0 -0.3112396 0.25411373 -0.24982615 -0.26735258 0.0545381 0.14393744 0.045495175
0.27404264 -0.0023840254 0.022744456 0.14522497 0.17393707 -0.073534004 -0.29564938 -0.07341077
0.557402 0.045136865 0.0 0.0 0.2750154 -0.27532017 0.0690176 -0.14385818

TensorArrayV2_1 f4 [28, 1, 128]
00000000: 0000 0000 0000 0000 0000 0000 0000 0000
00000010: 0000 0000 0000 0000 0000 0000 0000 0000
00000020: 0000 0000 0000 0000 0000 0000 0000 0000
00000030: 0000 0000 0000 0000 0000 0000 0000 0000
00000040: 0000 0000 0000 0000 0000 0000 0000 0000
00000050: 0000 0000 0000 0000 0000 0000 0000 0000
00000060: 0000 0000 0000 0000 0000 0000 0000 0000
00000070: 0000 0000 0000 0000 0000 0000 0000 0000
00000080: 0000 0000 0000 0000 0000 0000 0000 0000
00000090: 0000 0000 0000 0000 0000 0000 0000 0000
000000a0: 0000 0000 0000 0000 0000 0000 0000 0000
000000b0: 0000 0000 0000 0000 0000 0000 0000 0000
000000c0: 0000 0000 0000 0000 0000 0000 0000 0000
000000d0: 0000 0000 0000 0000 0000 0000 0000 0000
000000e0: 0000 0000 0000 0000 0000 0000 0000 0000
000000f0: 0000 0000 0000 0000 0000 0000 0000 0000
00000100: 0000 0000 0000 0000 0000 0000 0000 0000
00000110: 0000 0000 0000 0000 0000 0000 0000 0000
00000120: 0000 0000 0000 0000 0000 0000 0000 0000
00000130: 0000 0000 0000 0000 0000 0000 0000 0000
00000140: 0000 0000 0000 0000 0000 0000 0000 0000
00000150: 0000 0000 0000 0000 0000 0000 0000 0000
00000160: 0000 0000 0000 0000 0000 0000 0000 0000
00000170: 0000 0000 0000 0000 0000 0000 0000 0000
00000180: 0000 0000 0000 0000 0000 0000 0000 0000
00000190: 0000 0000 0000 0000 0000 0000 0000 0000
000001a0: 0000 0000 0000 0000 0000 0000 0000 0000
000001b0: 0000 0000 0000 0000 0000 0000 0000 0000
000001c0: 0000 0000 0000 0000 0000 0000 0000 0000
000001d0: 0000 0000 0000 0000 0000 0000 0000 0000
000001e0: 0000 0000 0000 0000 0000 0000 0000 0000
000001f0: 0000 0000 0000 0000 0000 0000 0000 0000
00000200: 0000 0000 0000 0000 0000 0000 0000 0000
00000210: 0000 0000 0000 0000 0000 0000 0000 0000
00000220: 0000 0000 0000 0000 0000 0000 0000 0000
00000230: 0000 0000 0000 0000 0000 0000 0000 0000
00000240: 0000 0000 0000 0000 0000 0000 0000 0000
00000250: 0000 0000 0000 0000 0000 0000 0000 0000
00000260: 0000 0000 0000 0000 0000 0000 0000 0000
00000270: 0000 0000 0000 0000 0000 0000 0000 0000
00000280: 0000 0000 0000 0000 0000 0000 0000 0000
00000290: 0000 0000 0000 0000 0000 0000 0000 0000
000002a0: 0000 0000 0000 0000 0000 0000 0000 0000
000002b0: 0000 0000 0000 0000 0000 0000 0000 0000
000002c0: 0000 0000 0000 0000 0000 0000 0000 0000
000002d0: 0000 0000 0000 0000 0000 0000 0000 0000
000002e0: 0000 0000 0000 0000 0000 0000 0000 0000
000002f0: 0000 0000 0000 0000 0000 0000 0000 0000
00000300: 0000 0000 0000 0000 0000 0000 0000 0000
00000310: 0000 0000 0000 0000 0000 0000 0000 0000
00000320: 0000 0000 0000 0000 0000 0000 0000 0000
00000330: 0000 0000 0000 0000 0000 0000 0000 0000
00000340: 0000 0000 0000 0000 0000 0000 0000 0000
00000350: 0000 0000 0000 0000 0000 0000 0000 0000
00000360: 0000 0000 0000 0000 0000 0000 0000 0000
00000370: 0000 0000 0000 0000 0000 0000 0000 0000
00000380: 0000 0000 0000 0000 0000 0000 0000 0000
00000390: 0000 0000 0000 0000 0000 0000 0000 0000
000003a0: 0000 0000 0000 0000 0000 0000 0000 0000
000003b0: 0000 0000 0000 0000 0000 0000 0000 0000
000003c0: 0000 0000 0000 0000 0000 0000 0000 0000
000003d0: 0000 0000 0000 0000 0000 0000 0000 0000
000003e0: 0000 0000 0000 0000 0000 0000 0000 0000
000003f0: 0000 0000 0000 0000 0000 0000 0000 0000
0.0 0.0 0.0 0.0 0.0 0.0 0.0 0.0
0.0 0.0 0.0 0.0 0.0 0.0 0.0 0.0
0.0 0.0 0.0 0.0 0.0 0.0 0.0 0.0
0.0 0.0 0.0 0.0 0.0 0.0 0.0 0.0
0.0 0.0 0.0 0.0 0.0 0.0 0.0 0.0
0.0 0.0 0.0 0.0 0.0 0.0 0.0 0.0
0.0 0.0 0.0 0.0 0.0 0.0 0.0 0.0
0.0 0.0 0.0 0.0 0.0 0.0 0.0 0.0
0.0 0.0 0.0 0.0 0.0 0.0 0.0 0.0
0.0 0.0 0.0 0.0 0.0 0.0 0.0 0.0
0.0 0.0 0.0 0.0 0.0 0.0 0.0 0.0
0.0 0.0 0.0 0.0 0.0 0.0 0.0 0.0
0.0 0.0 0.0 0.0 0.0 0.0 0.0 0.0
0.0 0.0 0.0 0.0 0.0 0.0 0.0 0.0
0.0 0.0 0.0 0.0 0.0 0.0 0.0 0.0
0.0 0.0 0.0 0.0 0.0 0.0 0.0 0.0
0.0 0.0 0.0 0.0 0.0 0.0 0.0 0.0
0.0 0.0 0.0 0.0 0.0 0.0 0.0 0.0
0.0 0.0 0.0 0.0 0.0 0.0 0.0 0.0
0.0 0.0 0.0 0.0 0.0 0.0 0.0 0.0
0.0 0.0 0.0 0.0 0.0 0.0 0.0 0.0
0.0 0.0 0.0 0.0 0.0 0.0 0.0 0.0
0.0 0.0 0.0 0.0 0.0 0.0 0.0 0.0
0.0 0.0 0.0 0.0 0.0 0.0 0.0 0.0
0.0 0.0 0.0 0.0 0.0 0.0 0.0 0.0
0.0 0.0 0.0 0.0 0.0 0.0 0.0 0.0
0.0 0.0 0.0 0.0 0.0 0.0 0.0 0.0
0.0 0.0 0.0 0.0 0.0 0.0 0.0 0.0
0.0 0.0 0.0 0.0 0.0 0.0 0.0 0.0
0.0 0.0 0.0 0.0 0.0 0.0 0.0 0.0
0.0 0.0 0.0 0.0 0.0 0.0 0.0 0.0
0.0 0.0 0.0 0.0 0.0 0.0 0.0 0.0

model_2/batch_normalization_7/batchnorm/mul f4 [3]
00000000: 9e8f 363e 5442 843e e84a 923e
0.17828223 0.25831854 0.28572774

model_2/batch_normalization_7/batchnorm/sub f4 [3]
00000000: 8cd9 83bf acde 0f3f 8f28 ad3f
-1.0300765 0.56199145 1.3528003

model_2/batch_normalization_9/batchnorm/mul f4 [7]
00000000: eb47 66bc 90d9 8241 6631 e341 94e0 b3bc
00000010: 4a17 fd41 1135 743d 58b6 873e
-0.0140552325 16.356232 28.39912 -0.021957673 31.636372 0.05962092 0.26506305

model_2/batch_normalization_9/batchnorm/sub f4 [7]
00000000: 8cc4 63bd fc3d 613e 9b52 adbf 373d e6bd
00000010: cf6e a9bf 3e3c 36bf 8481 0cbf
-0.055607364 0.21996301 -1.3540834 -0.112421446 -1.3236941 -0.7118567 -0.54885125

model_2/dense_16/MatMul f4 [128, 4]
00000000: 8b2f 5cbe 35ba 1b3e 4adf d33e aa65 5cbf
00000010: fe44 273f ad41 1fbf 3368 9bbf d8b8 5ebf
00000020: 3c52 24c0 1783 4ebf 2f20 b3be 30d4 00bf
00000030: 35e8 66bd f0e9 9c40 9b06 273f 9f22 a83f
00000040: a1dc 143f 6a46 08be d4cd b83e 51b1 2c3f
00000050: d13d 973a 59f7 383f 81ca 3e3f f0dc 00be
00000060: 8c21 ae3f 9329 bf3f a64a aa3f 13fe e43e
00000070: bf1b 6bbe f84a f2be ecae 9dbf 1b60 273e
00000080: df6b 703f 3819 7dbe 2f95 c43e 28ea 08be
00000090: 61b2 533e 2c79 d43e 1fa5 db3e e09e a4bc
000000a0: f10a 543f 13d2 f53c 53f0 5fbb 42da 153f
000000b0: bc41 15be 7af1 0dbf 5e44 64bf 8bad 36bf
000000c0: a42a 7dbf 8a1b e6bf a413 ddbf df52 a13e
000000d0: b85b 00be 4545 14be 007f 53ba 00de f0b9
000000e0: c5fe 6bbf f382 eabe 5fa5 3e3f f054 9f3f
000000f0: c3f9 ddbb dfa0 85bf 0adc a6bf e0f0 aebe
00000100: 7bf8 39be c94b 0c3f 1418 583f c239 0f3d
00000110: b4e1 af3f 856e 763d 88cb 9c3e c801 50be
00000120: 2e44 08be 5028 2c3d 633d 09be 8723 44be
00000130: 0331 973f c2c6 723f 2aa6 193f 164a c5be
00000140: 1417 c3be 100d 75bf 486a 34bf dd76 c73c
00000150: d9d3 973f 6da5 3dbe d376 873e a556 3a3e
00000160: 6e9f 6bbf 0163 963c 5b43 cfbe 8ff9 75be
00000170: 5ff9 f73e 5f74 aa3e 7827 053e 4e28 953f
00000180: f12b 1dbe 7df4 9a3d 621b 40be 4adb 26be
00000190: 489a acbe 35e8 e8be 460f 9dbf 1f6a 293e
000001a0: fe1a 33c0 05da d73d 29e9 df3e c20f fb3e
000001b0: ecd7 59bf f4f2 59bf 38c1 a2bf a50b 8bbe
000001c0: d661 a93f bd4f 383c 99d6 883e 8cce 233f
000001d0: 1aa7 13c0 84d5 2b3f f81c a23f db9a c93c
000001e0: dc42 ac3f b2bc 9ebe 4568 0b3f 471d dfbd
000001f0: b785 95be 353e 31bf 7c7e a1be 20c9 89be
00000200: d44f 93be 68fc eebe 5b20 f0be 01ff 01bf
00000210: a693 0abf 7138 10be 2e89 1abe 3dcf b2be
00000220: 284d 71bd f4a1 27bd d0be acbd e007 45bc
00000230: 778a 48be 282e 3abe 7997 05bf 89ba 3fbd
00000240: a61f 55be 2880 68bd 0033 c23a de6b 2ebe
00000250: 6280 b73d e05e 4dbe 0486 23bf 5b86 bbbe
00000260: 8189 4abf 018d 90be 1e22 88bf 3ab7 373d
00000270: e046 853f 4c00 1cbe e325 af3e a341 bbbd
00000280: 1732 8d3e 0d40 503e 5909 a43e 3f99 513f
00000290: 1b9a 6f3f e636 833e 21ba 453e 8ee5 77bd
000002a0: dd1c 213f 8108 eb3e a5e8 563e 4c1e d63d
000002b0: bb42 e5be 8e93 803c 7040 073f d1c8 533f
000002c0: a1c4 003c 1707 c4bd 08eb aabf 6d99 80be
000002d0: a431 75be 9c7c 84be 91c7 16bf 8aac 9abe
000002e0: f7a1 27be 3e20 55be df13 c8be 58a3 29bd
000002f0: 5278 b63f 9892 3e3e d530 a03d 63bf 5ebd
00000300: 9619 5cbf 981a 6bbf b483 d1bf 17ab 94be
00000310: ef1e 073f 0bb7 edbc b760 173f ad80 b9bc
00000320: e2f8 afbe f914 e23e fa96 a03e 2f08 13bf
00000330: c358 1a3f 2331 8fbe d387 053f 9844 b03e
00000340: 6e47 b4bd ea4a b1bd 5944 57be 6170 39be
00000350: b46a e53d e6b6 55bc 6b48 efbe ab1c cfbd
00000360: 4914 593f ee40 c93e db84 b13c 78a7 2ebd
00000370: 499e bbbf 790d 49be a798 a2be 6f4a 40bf
00000380: e408 28be 5de8 003e be5c 84bf 23d2 cdbe
00000390: e9f2 30bf a065 f4be 0726 88bd 2c43 86be
000003a0: e39c d83e 689a b13e f0bb a13f 57aa 763d
000003b0: d47e a1bf 7198 f73d a4d6 42bf 9532 90be
000003c0: 67d6 51be 971c f6bc fa17 25be e608 11be
000003d0: b218 f03f 7564 f93e 4aa2 933c 04e3 8a3e
000003e0: eee9 36bf 8c19 98be 4b41 313d 053d 65bf
000003f0: c273 2ac0 8949 19bf 4b3b 8dbf 5aa3 95be
-0.21502511 0.15207751 0.41381294 -0.8609263 0.6533965 -0.6220959 -1.2141174 -0.870008
-2.5675192 -0.8066878 -0.34985492 -0.5032377 -0.056373794 4.903557 0.65244454 1.3135566
0.58149153 -0.13308111 0.36094534 0.67458063 0.0011538808 0.7225242 0.74527746 -0.12584281
1.3603988 1.4934562 1.3304031 0.44725093 -0.22959803 -0.47322822 -1.2319007 0.16345255
0.939146 -0.24716651 0.38395068 -0.13370574 0.20673515 0.41498697 0.42899415 -0.020095289
0.82829195 0.030007398 -0.0034170344 0.5853616 -0.14575857 -0.5544659 -0.8916682 -0.71358556
-0.9889319 -1.7977154 -1.7271619 0.31508538 -0.12534988 -0.14479549 -0.00080679357 -0.0004594177
-0.9218562 -0.4580303 0.74471086 1.2447796 -0.0067741587 -1.0439719 -1.30359 -0.34168148
-0.18161194 0.5480314 0.8441174 0.03496719 1.3740754 0.060163993 0.30624032 -0.2031318
-0.13307258 0.042030632 -0.13402323 -0.19154178 1.1811832 0.9483453 0.6001917 -0.38533086
-0.38103545 -0.95723057 -0.7047467 0.02434867 1.1861526 -0.18520136 0.26457843 0.18197115
-0.92040145 0.018357756 -0.40481076 -0.2402098 0.48432443 0.3329191 0.13003337 1.1652925
-0.15348794 0.07566164 -0.18760446 -0.1629459 -0.33711457 -0.4548966 -1.2270286 0.16544388
-2.7985225 0.10539631 0.43732575 0.4903546 -0.85095096 -0.8513634 -1.2715216 -0.27157322
1.3232982 0.01124948 0.26726225 0.6398704 -2.307074 0.67122674 1.266509 0.024609974
1.3457904 -0.31003338 0.5445598 -0.10894256 -0.2920358 -0.69235545 -0.31541812 -0.2691126
-0.28771842 -0.46676946 -0.46899685 -0.5077973 -0.54131544 -0.1408403 -0.15091392 -0.34923735
-0.058911473 -0.040925935 -0.08434832 -0.012025803 -0.1958407 -0.1818167 -0.52184254 -0.046808753
-0.20812854 -0.056762844 0.0014816225 -0.17033336 0.08960034 -0.20055723 -0.63876367 -0.36625943
-0.79116064 -0.28232577 -1.0635412 0.044852473 1.0412254 -0.15234488 0.34208593 -0.091433786
0.27577278 0.20336933 0.32038382 0.8187446 0.9359452 0.25627822 0.19309284 -0.060521655
0.62934667 0.45904925 0.20987184 0.104549974 -0.44777474 0.01569536 0.528327 0.82728297
0.00785938 -0.09571665 -1.3352976 -0.25117055 -0.23944718 -0.2587632 -0.58898264 -0.30209762
-0.16370378 -0.2081308 -0.3907766 -0.041415542 1.4255469 0.18610609 0.07821814 -0.05438174
-0.8597654 -0.91837454 -1.6368318 -0.2903678 0.52781576 -0.029017946 0.5913195 -0.022644365
-0.3436957 0.44156626 0.31365186 -0.5743436 0.6029169 -0.27967176 0.52160376 0.34427333
-0.08802687 -0.08656867 -0.21022166 -0.18109275 0.11201993 -0.013044095 -0.46734938 -0.1011289
0.8479658 0.3930735 0.021669796 -0.04264018 -1.465768 -0.19634046 -0.3175709 -0.75113577
-0.16409642 0.1258864 -1.0340803 -0.40199384 -0.6912065 -0.47733784 -0.06647878 -0.26223123
0.42307195 0.34688115 1.2635479 0.060221042 -1.261683 0.12089623 -0.76108766 -0.2816359
-0.20491944 -0.03004293 -0.16122428 -0.1416355 1.8757536 0.48709455 0.018021721 0.27126324
-0.714507 -0.2970699 0.04327516 -0.89546233 -2.6633153 -0.5987783 -1.103372 -0.2922619

model_2/dense_19/MatMul f4 [64, 128]
00000000: b16a f03d 3f5a f33d 4823 b2bc 20cd 3cbe
00000010: 40f5 633d e55d 4d3d 16b8 2b3d 3632 d7bd
00000020: db2b a4bd 2881 10bd d118 083e 397f 9b3d
00000030: 3dac 23be 007b 11be ed52 cabd 92a3 063e
00000040: 99fa 8fbd 194c 1fbe c45d b0bd 35a6 ae3d
00000050: 0898 d5bc e987 1c3e c95a 06bd 9687 473d
00000060: 5b2a 1bbd 7ea3 94bd ca88 993d 013b 2a3d
00000070: 4236 02bd 3c40 b73d f3cd 403e d1fb 893c
00000080: 0060 12be e59c dabd 96e6 52bd 0b41 243e
00000090: ee9c a9bd 0462 083e 990d 563e c44d 49bc
000000a0: e1e5 303c 643b ee3d 0513 253e a919 e23b
000000b0: ccd2 cdbd 2faf bcbd a814 4abd b14f bf3d
000000c0: 2cb4 4a3e 680b 8c3d 36c6 09be d94d 063e
000000d0: cd17 9a3d bc96 f6bd 819b 0cbe 28b7 c83c
000000e0: 67cc 07be dea3 f639 cb06 8dbd 8a89 1b3e
000000f0: 3413 ab3c 27d1 903d 8fe4 6fbd b3fd 47bc
00000100: 67bd 44be 4b45 0a3d 4b90 98bc b527 163d
00000110: 3df3 17be 1f74 58bd 9075 293d 171e 9cbc
00000120: 25d3 b63d 1d3c a43d b04e dfbd 2836 cf3d
00000130: 6a32 213e 98e5 f8bd 3aa7 413e c9ff af3d
00000140: d679 13be 3c4e f43d 4da7 403e 8361 ff3b
00000150: 74f4 043e 8194 16be da4f 103e f9a6 28bd
00000160: f569 2b3d dd5c dbbc ccc6 6e3d 7caa cabd
00000170: ab56 70bd 6de6 03be 4eb0 203c d3ea ed3d
00000180: c48d f8bc 9cb3 1ebc d407 c0bd cffc 1fbc
00000190: eb80 023e ea44 54bd a8e3 f5bd 0fb6 31bd
000001a0: dde3 b4bc 739e 9e3d d693 163e 2275 d5bb
000001b0: 4592 3abe 8916 11bd 0396 ed3d 42a0 08be
000001c0: 4705 ec3d 6b59 aabd 4592 13be 9357 98bd
000001d0: 1307 49be 6d4d a2bd 5266 e2bd ec4d 07be
000001e0: f2ea 48bd fafb bd3d e15d 21be 1580 41bd
000001f0: 4ed2 d4bc 7b42 2a3e 7a48 f6bd 2ee6 a03d
00000200: 269c c63f 23e6 153f 2e79 cdbf 2c93 643f
00000210: e0a2 87bf 0fc9 2fbe 7683 a23f cea6 10bf
00000220: 515a b33f a3cf d43e 67ab d6bf 4552 3cbe
00000230: 0f15 8e3f 1775 c4bc c9fa af3f 11bc 84bf
00000240: 9ef4 afbe d052 93bf f91d a1bf 165f a9bf
00000250: 660f ed3e 5cd9 3bbe 0a07 ccbf c9d1 893d
00000260: 8e1b cc3f 35c1 31be 7b16 d53e 2c52 82bf
00000270: e07a a9bf 80d0 a83f 6804 e03e f04b fdbe
00000280: f360 90be f8b2 40bf 04a7 b5bf efe4 f0bf
00000290: e408 b03e c73e 8e3f 1880 843f 7b98 e23f
000002a0: 17a2 aebf 0e89 56be a613 573e 6e06 b6bf
000002b0: 399f e53f e9bd 873f 6c71 6abf d6c5 823f
000002c0: d78b 23bf 6dba 22bf fd1b 6abf eee5 0540
000002d0: 96bb 8f3e 4f55 4f3f 2f90 a1bf 1cf6 21bf
000002e0: c2ac f63e 82aa b8bf f6c6 873f beda a7bf
000002f0: 3b65 d73e 4f53 e13f f668 c93f c7d8 443f
00000300: ea51 bc3e 6970 c1bf 37a3 183e ad2e 0ac0
00000310: 8926 6c3f bd99 753e 352c 9e3f 711b 6abf
00000320: 32da 55bf dd40 debe 8dec bebe 3c12 b2bf
00000330: bb9b abbf 4f63 b53f 717c 013f 1ed7 2f3f
00000340: 41ae 9c3f 24e4 a1bf d71a b53f 6184 a43f
00000350: 9c98 f8bf 1faa a93f 0679 3d3f 973b 703f
00000360: d5d7 bb3e 169b 933f 83bc b03f 165c adbf
00000370: 7db2 2dbf daf2 403f 298d 173f 6e2c 86bf
00000380: 6086 56bf 7959 87bf 188b b9be 12aa fa3e
00000390: eba6 bdbf caa4 ed3e 8851 a73e 7e15 663f
000003a0: ae44 233f 7acb 2bbf 4efb d6bf 655a db3f
000003b0: 3ea1 0440 2c80 a5bf e10f c4bf df1b bfbf
000003c0: 1085 9c3f fa93 d53f 514c 813f 8a72 91bf
000003d0: 80ba 5e3f 3701 30be 1d47 4dbe 5c5a b1bf
000003e0: 595f 433f a298 ae3f 012d 9e3f 9a46 a4bf
000003f0: b0ea 9d3e f8a6 d4bf 3c43 9fbd d51b 963f
0.117391 0.118824475 -0.021745339 -0.18437624 0.05565381 0.050138373 0.041923605 -0.10507624
-0.08016177 -0.035279423 0.13290717 0.07592625 -0.15983672 -0.14207077 -0.09879098 0.13148335
-0.070302196 -0.15556373 -0.086116344 0.08527795 -0.02607347 0.1528622 -0.032801423 0.04871329
-0.03788219 -0.07257746 0.074967936 0.041560177 -0.031790026 0.089477986 0.18828563 0.016843708
-0.14294434 -0.106744565 -0.051489435 0.16040437 -0.08281885 0.1331864 0.20903625 -0.012286607
0.010796995 0.116324216 0.16120537 0.0069000316 -0.10049972 -0.09213101 -0.049336106 0.09341372
0.19795293 0.06838113 -0.13454518 0.13115634 0.07524071 -0.12040469 -0.13731195 0.024501398
-0.13261567 0.00047042867 -0.06886061 0.15189186 0.02088318 0.07071143 -0.05856758 -0.012206483
-0.19212876 0.03375749 -0.018623492 0.03665896 -0.14838882 -0.052845117 0.041371882 -0.019057317
0.089269914 0.08019278 -0.1090368 0.10117751 0.15741888 -0.121531665 0.18911448 0.08593709
-0.14401945 0.119289845 0.1881382 0.0077936067 0.12983876 -0.14705087 0.14092961 -0.041174863
0.041849095 -0.02677768 0.058295056 -0.098957986 -0.058676403 -0.12880869 0.009807659 0.11617055
-0.030341037 -0.009686377 -0.09376493 -0.009764864 0.12744491 -0.051823534 -0.120063126 -0.043386515
-0.02208131 0.077450655 0.14704832 -0.0065142075 -0.1821986 -0.03542188 0.11600878 -0.13342384
0.11524444 -0.083178364 -0.14411266 -0.074385785 -0.19631605 -0.07924924 -0.11054672 -0.13213319
-0.049052186 0.09276576 -0.15758468 -0.04724129 -0.025979187 0.16626923 -0.120255426 0.07856403
1.5516403 0.58554286 -1.6052606 0.89287066 -1.059658 -0.17166542 1.2696369 -0.56504524
1.4011937 0.41564664 -1.6771058 -0.18390758 1.1100177 -0.023981614 1.3748409 -1.0369893
-0.34366316 -1.1509647 -1.2587272 -1.3232143 0.4630081 -0.18344635 -1.5939648 0.067294665
1.5945909 -0.17358859 0.41618714 -1.0181327 -1.3240623 1.3188629 0.43753362 -0.49471998
-0.28198966 -0.75273085 -1.4191594 -1.8819865 0.34381783 1.1112908 1.0351591 1.7702783
-1.3643216 -0.2095072 0.21003589 -1.4220712 1.7939216 1.0604831 -0.9157932 1.0216625
-0.63885254 -0.63565713 -0.91448957 2.0921588 0.28072804 0.80989546 -1.2622126 -0.6326616
0.4817868 -1.4427035 1.0607593 -1.311363 0.4206942 1.7603549 1.5735157 0.76893276
0.36781245 -1.511243 0.14906012 -2.1590989 0.922463 0.23984428 1.2357241 -0.9144812
-0.83536065 -0.43408862 -0.3728985 -1.3911815 -1.34069 1.4170932 0.5058051 0.6868762
1.2240678 -1.2647748 1.4148816 1.2852899 -1.9421573 1.3255042 0.7401279 0.93840927
0.36688104 1.1531703 1.3807529 -1.3543727 -0.67850477 0.7537056 0.5919977 -1.0482309
-0.8379879 -1.057418 -0.36238933 0.48957878 -1.4816564 0.46414787 0.3267939 0.89876544
0.6377667 -0.67107356 -1.6795442 1.7136961 2.0723414 -1.292974 -1.5317346 -1.493038
1.2228107 1.6685784 1.0101415 -1.136308 0.87003326 -0.17187963 -0.20046659 -1.38557
0.76317364 1.364033 1.2357484 -1.2834046 0.30843115 -1.6613455 -0.07776496 1.1727244

model_2/dense_21/MatMul f4 [16, 10]
00000000: 1d44 7fbe 0b33 89bf f8cf 06bc 5f68 253f
00000010: 221a 073f 1a3c ab3e b1d3 773e 66d8 303c
00000020: ea9f 94bd 99ed e33d 2617 6f3e 182c bf3f
00000030: ccd7 fc3d 1adf b23c 0451 b5bd 7dfc e1be
00000040: e1f6 173e d858 cbbe a76e 3bbf 2c3a 063f
00000050: 9a4e bb3e ae34 33bf 753b d4bf fb34 56bf
00000060: e5ec 6bbf 746b f23e 662b 40bf 94c6 113f
00000070: af0d 9bbf 3f48 95bf 76d0 c1bd a0a0 6c3c
00000080: b445 e73f c653 223f 0d0a 45be 5e16 bf3e
00000090: 092d 0dbe 2aad c0bd 950d 54be cf19 d23e
000000a0: b534 6fbd 8b6d be3f 618e 3e3e a655 153f
000000b0: aef0 15be 4c16 97be fe42 0c3f 377d d3bd
000000c0: a18e 463f 1b82 cc3e efe0 d5bd b606 66bf
000000d0: da15 d2be 011a 183e 2b60 5fbe 7e9a 123f
000000e0: 6b2b 63bf 88ef 143f 5c15 3cbe d5be 96bc
000000f0: 262a 07bf f4b4 11bf c4b9 da3e ba87 da3e
00000100: 7116 423f af14 60bf f2b1 b7bd 2a5c 40bf
00000110: c901 84bf 3fab c03f 50c2 40bf 1bbd c2bf
00000120: 202a 76bf 0371 343f 7333 04be a3a4 873f
00000130: 581b 103f 95db 8d3f 350d 923e 58ae 6e3f
00000140: 010b b73f 0232 d13e 4bd9 673c 925b 11be
00000150: e570 7bbd 0310 0d3e dc79 a1bd b4ab 7f3e
00000160: 270e f83e b66e d13e aca1 f83e ab64 943f
00000170: d454 7fbd fc00 d0be 87f5 b73e d1c5 8cbd
00000180: 9ef7 023f 740d 2fbe c3eb 0cbf 908e 093f
00000190: 4479 e13d 6fba a43f fc45 b9be 9611 dfbc
000001a0: a188 41be abf4 28be 1e32 1c3e d4d5 31bd
000001b0: b0f9 103f 4072 a23e 40ba 8c3f 3285 283f
000001c0: 0643 463e 9ad9 e13e 4e8f 463e 6ecc 8c3e
000001d0: 9812 8bbd 6c04 7a3e e436 dcbc c906 65bc
000001e0: a203 19bf 5100 b3be e9de 80bf 3072 783f
000001f0: f2bf 053f 3483 423d bee1 893e e79f 893d
00000200: 615f e43e 7291 16be 4237 a93d d005 ac3f
00000210: 7001 f53e 0ef9 51be 0db9 70be c8f3 2bbe
00000220: 04d2 7fbe 997c 07bf 36b1 25be a29f 143f
00000230: e01f 1540 14ce 5c3f 7778 a0be 0167 a5bd
00000240: c140 063e bdc3 82ba 0b1c 17be 02cf dc3d
00000250: b095 9dbd 3744 a4bf 62a6 97bf 8ee0 c33f
00000260: 8484 a53f e29a 683e be9c 3fbe 87c8 9dbe
00000270: 2944 16be 1c86 a0be 40da 1fbe 4748 ae3e
-0.24928327 -1.0718702 -0.008228295 0.6461238 0.5277425 0.3344429 0.24201848 0.010793781
-0.07257064 0.111293025 0.23348674 1.4935331 0.123458475 0.021834899 -0.08853343 -0.44137946
0.1484027 -0.3971622 -0.7321572 0.52432513 0.36583406 -0.7000226 -1.6580645 -0.8367459
-0.9215835 0.47347605 -0.7506622 0.5694363 -1.2113551 -1.1662673 -0.09463589 0.014442593
1.8068147 0.6340908 -0.19242115 0.37321752 -0.13786711 -0.094080284 -0.20708306 0.41035315
-0.058399875 1.487718 0.18609 0.58333814 -0.14642593 -0.295092 0.5478972 -0.10326617
0.77561384 0.39943013 -0.10443293 -0.8985399 -0.41032296 0.1485367 -0.21814029 0.57266986
-0.88738126 0.58177996 -0.18367523 -0.018401543 -0.5279869 -0.5691674 0.42719853 0.42681676
0.7581549 -0.8753156 -0.08969487 -0.7514063 -1.0313045 1.505226 -0.752965 -1.521396
-0.9615803 0.7048494 -0.12910251 1.0597118 0.56291723 1.1082636 0.285257 0.9323478
1.4300233 0.40858465 0.014150928 -0.14195088 -0.06138696 0.13775639 -0.07884571 0.24967843
0.48448297 0.40904778 0.48560846 1.1593221 -0.062336758 -0.4062575 0.3592951 -0.06873668
0.51159084 -0.17094976 -0.55047244 0.5373316 0.11009458 1.2869395 -0.36186206 -0.027230065
-0.18899776 -0.16499583 0.15253493 -0.043416813 0.5663099 0.3172779 1.0994339 0.6582824
0.19361505 0.4411133 0.19390604 0.27499717 -0.06790656 0.2441575 -0.026881643 -0.0139786685
-0.5977117 -0.3496118 -1.0068027 0.97049236 0.5224601 0.047488406 0.2693004 0.06719952
0.44604018 -0.1470392 0.08262493 1.3439274 0.4785266 -0.20505163 -0.23508091 -0.16792214
-0.24982458 -0.52924496 -0.16180882 0.5805608 2.3300705 0.8625195 -0.31341907 -0.08076287
0.13110639 -0.0009976547 -0.14756791 0.10781671 -0.07694566 -1.2833318 -1.1847651 1.5302904
1.2931066 0.22715333 -0.18712136 -0.30817053 -0.14674439 -0.31352317 -0.156106 0.34039518

model_2/dense_17/MatMul;model_2/dense_17/Relu;model_2/dense_17/BiasAdd f4 [64]
00000000: c814 aebf 65e2 4e40 f81b 0b40 f2e0 dd40
00000010: 6a0a dc40 0f0a 7940 8f40 dc40 02ba 4940
00000020: 3e32 ecc0 468a c440 1e85 0440 ba65 ef3f
00000030: 47f8 7d40 ac64 d4bf b872 0fc0 5e5a 2541
00000040: 3b90 d440 ea09 063f 9f48 1240 2fc0 013f
00000050: 423a b840 41fe 97c0 e982 a340 3e42 8940
00000060: 7976 86bf 939c b33f 29de 3141 0676 19c0
00000070: e570 7840 921d 9fc0 7055 59bf 17a1 ec3f
00000080: daff 7cc0 7bfc 6c41 1fa9 98bf 80aa 1541
00000090: 0bed f2bf 696b 4940 c096 6f40 6193 76bf
000000a0: d41b a940 9bad 123f 7848 5540 908c 3b40
000000b0: 4690 9b40 6137 bac0 363e b9c0 13ca 3dc0
000000c0: a0c9 4fbf 55fc 1fc1 492c 5dc0 9bbe 873f
000000d0: 18ca 72bf af44 e640 c0d7 b2bf afb1 e440
000000e0: 122e 7540 f617 b440 0073 c940 f28d 5ebf
000000f0: 3652 4f40 6f95 bec0 bd01 edc0 0c09 27c0
-1.3600092 3.232568 2.173582 6.933709 6.8762712 3.891239 6.8828807 3.151978
-7.381133 6.141879 2.0706248 1.870292 3.9682786 -1.6593223 -2.2413769 10.334562
6.6426063 0.5235888 2.2856824 0.50683874 5.7571115 -4.749787 5.1097302 4.289336
-1.0504905 1.4032158 11.116738 -2.3978286 3.8818905 -4.9723597 -0.8489599 1.8486661
-3.953116 14.811641 -1.1926612 9.354126 -1.897859 3.1471808 3.743576 -0.9631863
5.284647 0.5729615 3.3325481 2.9304543 4.8613615 -5.81926 -5.788844 -2.9654586
-0.8116703 -9.9991045 -3.455828 1.0605043 -0.9483962 7.195884 -1.3972092 7.14669
3.830937 5.627925 6.295288 -0.8693534 3.2393928 -5.9557414 -7.406462 -2.6099272

model_2/batch_normalization_5/batchnorm/mul_1;model_2/batch_normalization_5/batchnorm/add_1;model_2/dense_17/MatMul;model_2/dense_17/Relu;model_2/dense_17/BiasAdd f4 [64, 128]
00000000: 2426 773d 6bcc 6dbe b4de 0141 72a5 a83b
00000010: 94a5 e4ba d6ed b23c 9a5a 8bbc cc52 de40
00000020: 4c0a b9bb d3db 4a3c c3c1 aa3c 978c 98c0
00000030: b8dd b940 72e0 303f 8325 02bd 0122 c9c0
00000040: be3d f13c 1f29 a0bd d657 95c0 9608 183b
00000050: 0c22 8c3e db66 38bd 6b29 0240 6e57 6e3d
00000060: b067 5040 40ed d9bf 6c54 943e 72c5 32be
00000070: 4f0d 33bd 4c30 723d 52fa b0bd 6087 283f
00000080: e5ff ccbf 70de 96c0 2f8d 6e40 ecaa 9fbf
00000090: aec5 11c0 7acc 0bbc 482b 2d3f 1c09 babb
000000a0: f83a 1c3d 6c50 00b9 fe8c 4e3d 63f8 de3b
000000b0: b4b4 9340 37d5 363f e623 2e3f 11fc 5c3b
000000c0: 5bcd de3f 77df 72ba aceb 783d 1185 d93c
000000d0: deb7 afbf d0b6 6240 a56f 703c c4a8 ae40
000000e0: 4ecd f840 7692 c63f cea3 3cbc ab51 f33f
000000f0: ed64 8140 c827 c2bb 8aa4 4240 9616 2140
00000100: dc56 cabc 6ccc eabc f5e7 a340 c2dd 8f3d
00000110: 0bd5 b8bd c2fd 393d 3913 1c40 c4cd 2cbe
00000120: cf2f 863c 84d4 4740 90e1 b83e e1a1 7040
00000130: 28be 1ec0 f868 b1bd b50f a940 0e99 0dbe
00000140: 8de9 a03f 2334 2cbf ac62 083f 97bf f03f
00000150: 7fa2 a2bc d93d 403f 2e8a 663d 02cf 05bf
00000160: bfd0 9f3d 1339 853f 6419 5a40 b112 bfbc
00000170: e72a f5bd 70cf a0c0 e4c1 09bd 3db3 a040
00000180: dc83 863e 526d be40 4164 ac3d ed64 ca3f
00000190: 5a0d 9440 8bb8 a6c0 6f6d b9c0 0089 22bf
000001a0: 2b95 183d 1f42 ed3c 54a5 0abc 52c2 de3e
000001b0: d6b7 5d40 b6de e640 0cc0 eabd a609 b63d
000001c0: 0035 7abc 3050 783a 6486 e63c a8d2 e8bc
000001d0: a902 59bd e66d 2540 7ea5 d6be f8b6 0441
000001e0: cb86 dfbc bf22 8b3d eeff 8e40 730e 9b3e
000001f0: c795 943c 956d ca40 fb2f e3bd f68f 0cc0
00000200: acbd 3a3e e0fb 7c3c 13e2 9040 c064 cbba
00000210: 9195 e5bd 9149 00bc 7780 aebd 303f e03e
00000220: 999f 233d 4c96 32bd d805 253d 1576 8f40
00000230: 0dc0 d840 32cc 2a40 7105 dd3c 2318 6dc0
00000240: acfe c33c fc66 5dbd 680d 9ec0 9a6d 453b
00000250: 57b5 803f 67ca 75bd b808 f2be 0bd6 43bc
00000260: 2440 4ac0 6f33 2d3f 5fb2 bd3d bc9f 72c0
00000270: 9e57 33bd b9f6 913d daad 45bd 96b9 abbf
00000280: b12e dc3f 647e 7c3c 5b07 7c40 9992 0940
00000290: 3eb3 a240 5d18 d3bf 0cad 693e f11f c33c
000002a0: aeb3 9cbd c8b8 173d b530 ed3c e9f0 1f3d
000002b0: 8772 c1c0 f86a 69c0 8b7e 2140 bd88 05bd
000002c0: 3426 3b3f c1c2 073d 86d1 b93d 7198 f5bc
000002d0: a4a9 b0c0 6542 f23f cd01 b0bd 2b2c 23be
000002e0: b545 5840 8d05 a940 e4da 17bb c4ca 5640
000002f0: e302 0640 c004 d9bd 1de2 02c0 b791 8840
00000300: 502b b2bd 60f7 69bd 5ff3 67c0 e1ab f2bb
00000310: 8ea0 10be 48dd fabb de67 8940 201e 2f3d
00000320: 6326 273d 7f7c e23e 688b a83d 9ca6 bd3f
00000330: f6dc 44bf 46b0 8e3b 07bf f540 3b33 053e
00000340: 67ec 60bb 8079 ffbf 4316 d63d 6f25 02be
00000350: aa3b a0bd 9e1f 6440 9436 a8bd 77ec 9e40
00000360: edd8 a1bc 3f0c 1d40 23be 09c0 6783 90bd
00000370: 69d1 823d c40b 4fbc d8e1 0abc e83e 5440
00000380: 4521 413e 6ad7 c3bf 3e63 1d3e e335 1ebd
00000390: 8454 37c0 4347 87bf 5ee1 2240 4a6c afc0
000003a0: acef 63c0 3ece acbe 7c51 2dbc 8c6c d23e
000003b0: d4d2 14c0 3331 9b41 904a a8bd e347 25bb
000003c0: e9fd f3bb a969 b03a 6ced 4dbc 3e4e 933d
000003d0: 9c39 5cbd 348c 0840 c094 713f 4c82 2740
000003e0: 85ee c1bc ca65 a5bb 8f3d 60c0 ea56 4140
000003f0: 4796 7ebd ffe7 68bf de5a 2abd 7d76 1c40
0.060339108 -0.2322251 8.116871 0.0051466757 -0.0017444366 0.021841925 -0.017010976 6.947607
-0.0056469794 0.012381512 0.020844346 -4.767162 5.8083153 0.69092476 -0.031774055 -6.285401
0.029448386 -0.07820343 -4.666972 0.0023198477 0.27369726 -0.045019966 2.033778 0.05818885
3.2563286 -1.7025528 0.2897066 -0.17458132 -0.043713864 0.05912809 -0.08641495 0.65831566
-1.6015593 -4.714653 3.7273672 -1.2474036 -2.2776904 -0.008532638 0.67644167 -0.0056773555
0.038142174 -0.00012236991 0.05042743 0.0068045123 4.6158085 0.7141909 0.68023527 0.003371958
1.740642 -0.0009264866 0.06077163 0.026552709 -1.3727987 3.542408 0.014675056 5.4581013
7.7750616 1.5513446 -0.011513663 1.9009298 4.04357 -0.0059251525 3.0412927 2.5170035
-0.02469962 -0.02866193 5.122065 0.07024719 -0.0902501 0.045408018 2.4386733 -0.16875368
0.016380219 3.122346 0.3610959 3.7598803 -2.4803562 -0.08662599 5.2831674 -0.13827917
1.2571274 -0.67267054 0.5327556 1.8808469 -0.019852875 0.7509437 0.056284122 -0.52268994
0.07803487 1.0408043 3.4077997 -0.023324342 -0.119710736 -5.025322 -0.033632174 5.0218797
0.26272476 5.950845 0.084175594 1.581205 4.62663 -5.210027 -5.7946086 -0.63490295
0.037251633 0.028962193 -0.008462269 0.4350763 3.4643455 7.2146864 -0.11462411 0.08888559
-0.015271425 0.0009472398 0.028140254 -0.028420761 -0.052981053 2.5848327 -0.41923136 8.29467
-0.027285954 0.06793737 4.4687414 0.3028446 0.018137826 6.3258767 -0.11093136 -2.1962867
0.18236417 0.015440911 4.527597 -0.0015517697 -0.11210168 -0.00783004 -0.085205965 0.43798208
0.039947126 -0.043600366 0.040288776 4.4831643 6.7734437 2.668713 0.026980134 -3.7045982
0.023925148 -0.05405329 -4.9391365 0.0030125142 1.005534 -0.06000748 -0.47272277 -0.011952887
-3.1601648 0.67656606 0.09262537 -3.7909994 -0.04378473 0.07127137 -0.0482615 -1.3416011
1.7201749 0.015410993 3.937949 2.1495726 5.08438 -1.649181 0.22819918 0.023818942
-0.07651459 0.037041456 0.02895389 0.03904811 -6.0452304 -3.6471539 2.5233486 -0.032601107
0.7310517 0.033144716 0.090731665 -0.029979916 -5.520708 1.8926512 -0.085940935 -0.15934817
3.3792546 5.2819276 -0.002317124 3.3561258 2.0939262 -0.10596609 -2.0450509 4.2677875
-0.086996675 -0.05712068 -3.6242292 -0.0074057435 -0.14123747 -0.0076557733 4.293929 0.04275334
0.040808093 0.44235608 0.08229715 1.481647 -0.7689966 0.0043545095 7.679569 0.13007824
-0.0034320594 -1.9958954 0.10453465 -0.12709592 -0.0782388 3.5644298 -0.08213535 4.9663653
-0.019756759 2.4538724 -2.15223 -0.07056313 0.06387598 -0.0126370825 -0.008476697 3.3163395
0.18860348 -1.5300114 0.15369889 -0.03862561 -2.8645334 -1.0568622 2.5450053 -5.481969
-3.5615034 -0.337511 -0.010578509 0.4109844 -2.325368 19.399023 -0.08217347 -0.002521985
-0.00744604 0.0013459224 -0.012568813 0.07192658 -0.053765878 2.1335573 0.943676 2.6173277
-0.023673305 -0.0050475346 -3.5037572 3.0209298 -0.062155034 -0.90979 -0.041590564 2.444732

model_2/dense_18/MatMul;model_2/dense_18/Relu;model_2/dense_18/BiasAdd f4 [3]
00000000: 4328 2dc1 77af 9140 6234 c13f
-10.8223295 4.552669 1.5094111

model_2/batch_normalization_6/batchnorm/mul_1;model_2/batch_normalization_6/batchnorm/add_1;model_2/dense_18/MatMul;model_2/dense_18/Relu;model_2/dense_18/BiasAdd f4 [3, 64]
00000000: cd24 6e3e e29e 683e c0ae 923e 539d 313f
00000010: 0d54 963e 6040 2a3e b7dd 59bd bc43 ed3e
00000020: 7a36 843e 6951 893e 001f 13bd c619 c33d
00000030: cae4 06bf 2bc8 8b3f 4bd5 0b3f bbe2 6c3f
00000040: 6928 1dbd 0be6 943e d3e8 553e bd31 853f
00000050: 5d68 253f d730 ae3d 4fd9 c5be 476e a23e
00000060: 9fac c03b 3bb9 873e 687a d9be 4a81 babe
00000070: de61 5b3d 01e3 713e 78f6 cabc 9b1d 8bbe
00000080: 4c8d c33e 6680 71be 430b 503d 0d8a 173d
00000090: ce82 6b3e c0ed 8b3e aa83 463e 6bb4 893f
000000a0: 6f7e 013f b18a b9be 6f55 9d3e f3a1 b9be
000000b0: 9b86 723d c99c abbd cfae 88bd ab03 e73e
000000c0: 763f 753e ccf8 3d3e d9a4 263f 5227 e53e
000000d0: fb39 173f a74b 8ebd 3df2 293d d774 4abd
000000e0: f203 4bbe ee88 9bbd cdf1 d7bd 1287 02c0
000000f0: c0cf e6bd f344 1bbd 955c a53d fd58 883c
00000100: cc0e 8ebe 5b72 93be b529 a2be 36e0 33bf
00000110: deda 6fbf eeb5 8abd 2c53 9e3d bd5c 30bd
00000120: fe96 4bbe cf6a 50be b31f 1abf d171 1ebe
00000130: da3c 623f 3442 b6be eb88 323e c02b 80bf
00000140: a29f 88be d558 1dbf 1c9c 5ebe e4ab 82bf
00000150: 17e1 79bf 21f7 023f 0edc 143f 74e1 cbbe
00000160: 608a e2be 2b00 e83c a179 4d3f 7efc 303f
00000170: 2ff0 d4bc b317 a53b 4fb6 053f bbbc ca3e
00000180: a40a fc3d f4d2 50be ff01 54be fa1b ca3c
00000190: d5dd 23bd a1cf d7be c6c3 0cbf 96f4 01bf
000001a0: 0e28 d9be c1aa de3c 2c52 103e 2e76 cc3e
000001b0: f8fa 89be fee1 ee3e 29a9 ba3e 7a8b afbd
000001c0: bf60 e03d 92f6 15be 637f d03d 43f1 5bbe
000001d0: 523e 99bf bf15 333f 2261 ecbe 9d53 19be
000001e0: 6e06 873e 4cc1 c5be dcad bf3d 99ac bdbf
000001f0: ef1e 5f3f 12ba 883c 8444 373e 5193 9cbe
00000200: 37b8 01be df5d 34bd a7fc b43e 499d bfbd
00000210: d340 d5bb 5d0d 66be 9e68 cabd 5cf4 01bd
00000220: 20cf 93be c02f aabe bf50 e4bc 46bb d43d
00000230: 5faa c5be a3cf 413f 63d5 c0bd 0d11 f4be
00000240: 05dc 19bf 1dd9 95bb d976 0d3e 227a 2dbe
00000250: fb45 a2be 5586 d0be 2d83 20be 0cad eabd
00000260: db8f ac3e 78ba 2b3e b8d9 cc3e f46f 9fbe
00000270: 1226 c6bd 3fbc 8dbe d184 e4be 6864 063d
00000280: 877e 93bc dfdd 53bc 74fc 6d3d 00aa a8be
00000290: 131c 583d 28d4 2f3d 7a46 ea3d 579e ea3d
000002a0: 9c20 8abe 15bb 733e 93b0 87bc c5a5 b5bc
000002b0: 9290 dcbe 7949 c13b f1a0 a33e 534b bb3d
000002c0: 79e9 12be 8cac eabc 8688 bfbd e13d 963e
000002d0: e235 aabe 2a07 0fbf 026f c0bf 6044 d7be
000002e0: 29d3 a03e fb83 18be 97c3 8cbd 8ca6 dabe
000002f0: 150b 413d ebde 023e e623 363e 3f3b 90bb
0.23256226 0.22716859 0.2864895 0.6938068 0.29361 0.1662612 -0.05318996 0.4634074
0.25822812 0.26819924 -0.035918236 0.095264 -0.52692854 1.0920461 0.54622334 0.92533463
-0.038368616 0.2908176 0.20889597 1.0405804 0.6461237 0.08505409 -0.38642356 0.3172476
0.005879953 0.26508507 -0.424762 -0.36426765 0.05356013 0.23621751 -0.024775729 -0.27171025
0.38193738 -0.23584136 0.05079199 0.03699689 0.22999117 0.27329826 0.19386163 1.0758184
0.5058355 -0.36238626 0.30729243 -0.3625637 0.0592104 -0.08379514 -0.06673967 0.45119986
0.2394999 0.1855194 0.6509529 0.44756562 0.59072846 -0.06948023 0.041490782 -0.049427833
-0.19825724 -0.07594477 -0.10544167 -2.039494 -0.11270094 -0.037907552 0.08074299 0.016643995
-0.27745664 -0.28798184 -0.31672445 -0.70263994 -0.9369334 -0.067729816 0.077307075 -0.043057192
-0.19881818 -0.20353244 -0.6020462 -0.15473105 0.883741 -0.35597384 0.17435043 -1.0013351
-0.2668429 -0.6146367 -0.21739239 -1.0208707 -0.97609085 0.5115834 0.58148277 -0.39820445
-0.44246197 0.028320393 0.80263716 0.6913527 -0.025993435 0.0050382256 0.52231306 0.39597115
0.12306717 -0.20392972 -0.20703886 0.024671543 -0.040006477 -0.42150596 -0.54986227 -0.50763834
-0.42413372 0.027181031 0.14093846 0.39933914 -0.26949286 0.46656793 0.36457184 -0.08571525
0.10955953 -0.1464484 0.10180547 -0.21478753 -1.1972144 0.69955057 -0.46167856 -0.14973302
0.26372093 -0.38624036 0.09359333 -1.4818298 0.87156576 0.016690288 0.1789723 -0.30581143
-0.12667929 -0.044034835 0.35349008 -0.09356172 -0.006507972 -0.22466035 -0.098832354 -0.03172718
-0.2886896 -0.33239555 -0.027870534 0.10387282 -0.38606545 0.75707453 -0.094157 -0.4766926
-0.6010135 -0.004573001 0.13814868 -0.16941121 -0.31694016 -0.40727487 -0.1567504 -0.11458787
0.33703503 0.16770351 0.40009856 -0.311401 -0.0967523 -0.27682683 -0.4463258 0.0328106
-0.018004669 -0.012931316 0.058102086 -0.329422 0.05276115 0.042926937 0.114392236 0.11455982
-0.26978004 0.23801835 -0.01656369 -0.022173772 -0.43079048 0.005898651 0.31958726 0.09145226
-0.14346875 -0.02864673 -0.09352212 0.29344085 -0.33244234 -0.55870306 -1.5033877 -0.42044353
0.31411102 -0.14894097 -0.06873243 -0.4270519 0.04712971 0.12780349 0.17787132 -0.004401594
