WREF-app/app/src/main/assets/flood_prediction_model.tflite (tflite, 652496 bytes, 19 tensors)

dense_16/bias f4 [64]
00000000: ce9b 853c 3b8f ef3d 8e69 ef3d 8965 553b
00000010: ae59 95bd 658d 8d3c 449e 6a3d 8aa8 903c
00000020: b064 553d 720b 103d f2df 97bd 86c5 263d
00000030: 33a1 cf3c b822 ba3d 0a07 9c3d 9c6d 013d
00000040: 9316 2f3c 89f2 9ebc 6fa6 01bd e39b 23bd
00000050: 6742 d9bd c6c2 e93c 68d7 0abd fed1 4d3b
00000060: 69ca 7a3c c270 24bd de14 873d c1ce 0a3d
00000070: 42d3 093b 7665 05be b949 523c 43a1 6d3d
00000080: 9531 af3c f3cc 5abd 4ad1 9d3c 2be6 22bd
00000090: 0f4e 9638 f74a 8f3c 4c7d 373d 1803 003d
000000a0: 79f8 8d3b 2b21 9c3b 8a69 1b3d 9ce7 5a3c
000000b0: e986 51bc da71 1c3c e2fa 24bc cef0 a4bc
000000c0: 30af 15bd 138a 1f3d 7e17 6fbc 8faf 933b
000000d0: 0521 89bd b39d 74ba cf59 b0bd b53c 29bc
000000e0: e885 3a3d cff4 913d d4bb 50bb be01 f73a
000000f0: 833d 60bd dd88 3abd 235c 783d f9c9 4d3b
0.016309645 0.11697241 0.11690055 0.003256174 -0.07292496 0.017279336 0.05727984 0.01765849
0.052097976 0.035167165 -0.07415761 0.040715717 0.02534542 0.09088653 0.0761853 0.031598672
0.010686534 -0.01940276 -0.031652864 -0.039943587 -0.10608368 0.028535258 -0.033896834 0.0031405683
0.015307047 -0.040146597 0.06595777 0.033888582 0.002103046 -0.13026986 0.01283496 0.05801512
0.021385947 -0.05341811 0.019264836 -0.039770287 7.167097e-05 0.0174918 0.044797227 0.03125295
0.0043325988 0.004764696 0.037942447 0.013360884 -0.012788513 0.009548629 -0.010069581 -0.020134356
-0.036544025 0.038950037 -0.014593003 0.004507012 -0.06695751 -0.00093313603 -0.0861088 -0.010329415
0.04553786 0.07126772 -0.0031850236 0.0018845124 -0.054746162 -0.04554068 0.060634743 0.0031400903

dense_13/bias f4 [32]
00000000: 653a 193b bc7e 8fbd 8c21 113e eeea 3e3d
00000010: eda8 843e d64d 203d 4a9b 5c3e 8dbc 773c
00000020: 719f 403e e3af 9b3d 8217 ee3c 51e9 88bc
00000030: d253 fc3e 38c9 813e 77bd f03c b2d6 463d
00000040: 4ae6 093d eaf1 4fbe cff1 243c 3f55 94bc
00000050: 3f1f 1fbc 4a6a 3b3d dc7d edbd 68d1 f03b
00000060: 6fa6 b23d e44a 593e 4893 e03d 81af afbe
00000070: ee1e 453a cf87 f73c b901 edbc 4815 a13c
0.0023380753 -0.070065945 0.14172953 0.046610765 0.2591013 0.03913673 0.21543613 0.015120638
0.18810822 0.07601907 0.029063944 -0.016712816 0.492827 0.2534883 0.029387219 0.048544593
0.033666886 -0.20307127 0.010067417 -0.018107055 -0.0097120395 0.045755662 -0.115962714 0.007349182
0.08723151 0.21219975 0.10965592 -0.34313586 0.00075195625 0.030216126 -0.028931485 0.019663468

Concated_layer/dense_13/MatMul f4 [32, 10]
00000000: f9e5 833f a6e2 67be 592c e23d 3076 c73e
00000010: 67c0 173e 6101 f2bd 96b0 183d f790 d03e
00000020: 8631 50be 80cc e4bd 951c 70be 6e20 823d
00000030: 2298 d8be e544 1b3d 44bd 493c 8732 7bbe
00000040: dc31 d1be 0349 1d3d f94b 96be df95 d4be
00000050: 8c65 0940 e261 71bc 85d2 0b3f 97e5 4f3e
00000060: d1b4 563e 333a 6cbe fa3c 20bd 67e3 af3d
00000070: 198f 33be 8ea4 5cbe 30d2 99be 9e3f 24be
00000080: 14f8 e1be 75b0 41be f244 83be cc0e 64be
00000090: ddeb c0be e049 cebb 8fb8 9c3d 4a6d fcbe
000000a0: d4da 2740 29bd 77bf 3897 24bf 5fb8 1fbf
000000b0: 4af8 b4be 892d a73f 8887 073e 2c14 e23d
000000c0: 440c 4fbe 657c c6bd 6974 d53e 978f 0b3f
000000d0: ada2 6d3f b7df 7c3f 86f3 3640 8755 6d3f
000000e0: 61d2 ef3e baab a4bd e70c 35be 88a5 933e
000000f0: f0e2 2640 f302 103f 5003 f8bb 31b8 8d3d
00000100: 973e 38bd 0b6c 0cbe 5d33 733e b5ea 903e
00000110: e99c 0abf d8ad a73c 798c b6be cf92 2dbf
00000120: 418c 213f 1384 7e3e 6990 00bf 898d e63e
00000130: b8e1 b13e c1e4 033f f895 25bf 49f9 9d3f
00000140: 4439 9d3f 9e6a 27be fd2a 5f3f 4169 053f
00000150: 19f9 0ebe 27a4 1c3e d6b6 b5bf d0e9 cdbd
00000160: 6b04 c23e 51bd e1be 207f ed3f a447 14bf
00000170: 3ebd 7c3e 811b 623e 63e0 a3bc b00e 13bd
00000180: 903c d2bd 618c cc3c 3140 82be 7747 90bd
00000190: d152 0440 1ee4 003f 12f1 00bf 63c8 a5bd
000001a0: bda4 293f bce5 8abe c676 4c3e b162 66bd
000001b0: 6ab2 4dbe dfa3 9d3e 96d3 03bf 815a 2abe
000001c0: b751 ecbd 9e3d aabd 68a4 0ebf a47b 67be
000001d0: e7ce e5be dc03 6dbe 91aa abbd eb78 12bf
000001e0: b05b e33e 5974 ac3f d4cb 8abf f02c 5abf
000001f0: aa2b 483f 3c8d d3bd 4f25 813f af07 033f
00000200: 0594 3e3e bea5 d0bf 99d5 c73f be75 f13e
00000210: 5903 823d 3114 74bf 5b38 b9be ddd1 b1be
00000220: 91d1 663e dc00 873e c594 9738 04d5 103f
00000230: 59cb b23f 7a7d f6be 2cfd 653f 46d2 d8bd
00000240: 37a7 08bf 3501 303e 4fa5 89be 39c2 0a3f
00000250: ee05 e73e cc68 de3d 926b 0d40 4471 37bf
00000260: 7cac edbd 2843 583f ca60 4ebc d04f 6abe
00000270: 7ede 0b3f 984d a7bc b242 b6be e1e4 09bd
00000280: d79c c13f 749c e93e 77e2 d6be 9c7d 273e
00000290: d8f6 d53e c844 b7be 3574 523e a68f b03c
000002a0: b405 c73e 09ef 91be 592f a0bf 0194 7c3f
000002b0: f5ce dd3f 19eb 80bf d12b 68be b547 703d
000002c0: 294d c6be 7174 03bf 5beb 9ebc 2689 26be
000002d0: 8847 113f 5c35 7bbd c86d 0a3f 449c ad3e
000002e0: ccdb 05bf ee97 c63b 2104 d53d 5782 e83e
000002f0: 452d ae3e d6cf 433e 6a45 23bf 870c be3d
00000300: bb1f 443f 5ef3 143f 1689 ef3e 0748 89be
00000310: 7af5 a13e c105 0a3f 9c87 9f3e d16b 803f
00000320: c241 68be f969 5abe 71cc 613d a2f9 aebd
00000330: 34c3 c5be 57e8 bfbe d9e8 30be f6e2 3fbe
00000340: 5837 a13d e500 39be 9f98 cd3f 9559 283f
00000350: 6c31 ad3e 685a d8be 45c5 393f ae3b 523e
00000360: c1bf 403f b65c babd 0c15 65be ed9d 62be
00000370: daa1 123f d167 0b3f 526d 733e 24f0 02bf
00000380: 89ed 223e 06c6 a4bf 7594 6cbe d49f bb3e
00000390: 4619 aa3f 255f 8d3f 043b bb3f 60fb 4b3e
000003a0: 4929 f33d 22b4 59be ffd9 d23e 122d 30bd
000003b0: 573f cabe 7283 5dbe ba81 143f c8fc ab3e
000003c0: 89de ddbf c262 a1bf b026 d53e 32d7 343e
000003d0: 48bc 13bf 723a 3fbe 7b64 fabe fa1d f03d
000003e0: 99e6 27bf 2f76 2b3e 62fe c53d 323e 013f
000003f0: 3bb9 193d bc49 773d 49f2 6cbf 8cfe 5bbf
1.0304557 -0.22645053 0.11043615 0.38957357 0.1481949 -0.11816669 0.03727778 0.407356
-0.20331392 -0.11171818 -0.23448403 0.06353842 -0.42303568 0.0379075 0.012313191 -0.24530993
-0.40858352 0.038399708 -0.29354838 -0.41520593 2.146823 -0.01473281 0.546181 0.20302425
0.20967413 -0.23069076 -0.03912065 0.085882954 -0.17535056 -0.21547148 -0.30043173 -0.16039893
-0.4413458 -0.1891497 -0.2563854 -0.2227127 -0.3767995 -0.0062954277 0.07652389 -0.4930213
2.6227312 -0.9677301 -0.6429324 -0.623907 -0.3534568 1.3060771 0.13235295 0.11039004
-0.20219523 -0.09691695 0.41690376 0.54515976 0.9282635 0.9877886 2.8586135 0.9270863
0.46840194 -0.08040567 -0.17680703 0.28837228 2.6076012 0.562545 -0.0075687543 0.06919897
-0.044981565 -0.1371309 0.23750062 0.28304067 -0.54145676 0.020468637 -0.35654047 -0.6780214
0.63104635 0.2485507 -0.5022035 0.45029858 0.34742522 0.51520926 -0.6468196 1.2341701
1.2283101 -0.16349265 0.8717497 0.5211373 -0.1396221 0.15296994 -1.4196422 -0.10054362
0.37893996 -0.4408975 1.855442 -0.57921815 0.24681565 0.22080804 -0.020004457 -0.03590268
-0.10265458 0.024969282 -0.254396 -0.07044881 2.0675547 0.5034808 -0.50367844 -0.08094861
0.66266996 -0.27128398 0.19967183 -0.056246463 -0.20087591 0.30789086 -0.5149473 -0.16636087
-0.11539023 -0.08312534 -0.55719614 -0.22605759 -0.44884416 -0.23146003 -0.08382142 -0.57215756
0.4440589 1.3473006 -1.0843453 -0.8522482 0.78191626 -0.10329673 1.0089511 0.511836
0.18611152 -1.630058 1.561206 0.47160143 0.06348295 -0.9534331 -0.36175808 -0.34730425
0.2254088 0.26367843 7.2279516e-05 0.56575036 1.3968307 -0.48142606 0.89839435 -0.105869815
-0.5338015 0.1718796 -0.26883933 0.5420261 0.45121711 0.10859832 2.2096906 -0.71657205
-0.116051644 0.8447747 -0.0125963185 -0.22882009 0.5463637 -0.020422742 -0.3559776 -0.03366554
1.5125989 0.45627177 -0.41969654 0.1635651 0.4178989 -0.35794663 0.20552142 0.021552872
0.3887154 -0.28502682 -1.2514449 0.98663336 1.7328783 -1.0071746 -0.22672965 0.058662135
-0.38730744 -0.5134955 -0.019399336 -0.16263255 0.56749773 -0.061330184 0.5407376 0.33908284
-0.5228851 0.006060592 0.10401178 0.4541194 0.34018913 0.19122252 -0.6377779 0.09279733
0.76610917 0.5818385 0.46784276 -0.26812765 0.31632596 0.5391503 0.3115815 1.0032903
-0.22681335 -0.21329488 0.05512661 -0.085437074 -0.3862549 -0.3748195 -0.17276324 -0.18738922
0.07871884 -0.18066747 1.6062201 0.6576169 0.33826768 -0.42256474 0.72566634 0.20530578
0.75292593 -0.090997145 -0.2237131 -0.22130556 0.57278216 0.54455286 0.23772171 -0.51147676
0.15910925 -1.2872932 -0.23103507 0.36645377 1.3288963 1.1044661 1.4627385 0.1992011
0.11873109 -0.21260121 0.41181943 -0.043011732 -0.3950145 -0.21632174 0.5801045 0.33591294
-1.7333537 -1.2608263 0.4163108 0.17660215 -0.5770917 -0.18674639 -0.48904786 0.117244676
-0.6558624 0.16744302 0.0966766 0.5048553 0.037530165 0.060373053 -0.925572 -0.8593528

Concated_layer/dense_16/MatMul f4 [64, 33]
00000000: c638 243d a9b4 1e3e 2b64 47bd 1833 23be
00000010: 4be2 8a3d 796d 2abd e241 83be 18d8 2c3e
00000020: 65bf c0bd a591 ccbc aadf 78bd 266a 623d
00000030: f189 3fbe c061 dcbd f861 aabd 6f97 5ebe
00000040: 064f 06be 6690 d0bd 79a7 6dbe 5e3b 523e
00000050: 406f a6bd 9f3e 28be 1f20 293e b6d6 22be
00000060: c4ae 2a3e 893f 86bd 164c 513e d99f c9bc
00000070: 9ee4 1cbc 9bb2 073d ffb2 1bbb 3231 52be
00000080: 1991 84be 12d1 203e 2184 763d b255 4d3e
00000090: 9b09 d03d 537f 6e3d 4c77 03be 46e8 bd3b
000000a0: 0fa3 88bd 511f 20bd faf5 a3bd 18a8 993e
000000b0: 61a3 16bd cd0a 86be b4fb 8a3e 0383 79bd
000000c0: bd19 8f3e 1786 5639 a6d8 74bd 6c88 00be
000000d0: 5a97 b23d beef 7fbe 0398 033e e9a3 783e
000000e0: a41a 923e b1fd 0d3e f53f e0bd adf2 fcbd
000000f0: 93df 6ebe 99b5 613c 8b8a cb3c faa0 69bd
00000100: 0c3a 973e 7b66 983f 0e1b 7c3e e8f0 ce3d
00000110: c789 de3c 7525 37bd 5df8 0ebe f6c6 913e
00000120: a14e 5b3e 62cf ea3c aa98 033e 175d 70be
00000130: 6ce9 b4bc 75e7 063f a4c6 1b3f 0734 ce3d
00000140: 9103 28be 9bbb d1bc fcee 1c3f dc86 1c3f
00000150: 6250 48be 37bc 253c a9d9 2a3f 4a0d bc3d
00000160: 84cd 2dbd 44c7 fc39 1ca3 e7bd 77f4 593e
00000170: 1a34 e33d 644e 9e3d 50cd 57be d414 163c
00000180: 0dc6 e93e b179 693b b86b 39be 7f3b 1b3e
00000190: 8287 8ebd 6ef0 37be 78e7 cc3e a687 dfbd
000001a0: 4b29 74be af4a e3bd 5fc1 063e 6c92 253e
000001b0: fd0a 923e 374f a53e d8bf 08bd 4447 e2bd
000001c0: 9dc8 653d 8ce1 413e a7d7 db3e 68b9 bf3d
000001d0: b0dc a43e d3ab cb3d cdfb 223e 7f0e d6bd
000001e0: 6cf3 183e d52b ed3d 5353 b73b 9ad4 aa3d
000001f0: 8f8d ba3b 22c1 2e3e bc8a 623e 16f2 7e3e
00000200: d61a e2bd 36e6 4ebe 4382 ffbb 8d0a 503f
00000210: cdcf 25be 7790 3f3e 92f5 803c baf4 01be
00000220: ee8d cc3c eeac 1c3e 0b97 383e 70b7 18be
00000230: 5c68 ecbd 6090 ed3c a705 22be 9604 8abd
00000240: 9d4a 90be 41ef 443e 7ded f4bd 9f3a 0bbe
00000250: 25e3 c5bd 26ce a4bc 20c6 9a3d cc1d 9bbd
00000260: cc94 30be d504 223e 690f 56bd cf12 8bbe
00000270: 9600 80be 27eb 1ebd 0589 5c3d 6913 90bc
00000280: 8a0c 1abe d068 d73c fc4f d83d db4c 193e
00000290: 0c0a 94be 2c28 5b3e 85c6 243e 9bcc 073d
000002a0: 2096 f93c 97ef 083e f69b fd3d 4b15 8b3d
000002b0: 35e6 9d3e 9954 cdbc c6f6 5f3d bbf7 b5be
000002c0: 9a07 c03e 1bc5 d03e 1ca6 1d3e 5253 653e
000002d0: c4ff 85bd 37b3 7a3e d1e5 c93e 6857 3ebc
000002e0: 4bf5 dabe 23dd 033f 385d 0c3d 0ff1 2fbe
000002f0: b9dd 8a3d 22c2 92be 4b4a 313e 9dab 3c3e
00000300: d530 733e 2b0b ccbd d293 8f3e 273e 833e
00000310: 72af 89be c1db dbbd 89a0 553e 4c27 4e3c
00000320: 8749 0aba 81ba 393e 1d4a b3bd 2354 ecbd
00000330: 4489 253e a9b1 583e bf2b 3b3d 32b9 11be
00000340: f26d 03bf 6cfd 153d ae65 d93e 242f a63d
00000350: 900f 18be 406d 95be e178 3a3d 18da 0e3e
00000360: b0c2 c0be 0f08 86be 7a91 ad3e 6937 8d3d
00000370: 4197 c33d 7c63 a1be e57c 8fbe 8b86 61be
00000380: f2a7 943e c92c 8a3e e738 b7be de78 383d
00000390: 4c99 143e 52a4 a2bd d521 403f e441 dcbd
000003a0: 515a 373d 4b38 a93c 7de0 653e 783c e93c
000003b0: 6729 13be 56b5 a8bd 850d f33d 9125 ce3e
000003c0: 3bdc cf3e 45bb 053f f573 213f cae5 58be
000003d0: 7c93 403e 1c44 8c3e 93cd 113f 07a2 423d
000003e0: d210 963e 8c5f e63e 4e0e 5e3e 9254 eb3d
000003f0: b019 8dbc 115e 4cbe 7a9f 113e e0bf 0f3e
0.040093206 0.15498604 -0.048679512 -0.1593746 0.06781443 -0.041608308 -0.25636202 0.16879308
-0.094115056 -0.024971792 -0.060760178 0.055277012 -0.18704964 -0.10760832 -0.08319467 -0.21737455
-0.13116083 -0.10183792 -0.23208417 0.2053046 -0.08126688 -0.16430138 0.1651616 -0.15902218
0.1666823 -0.06555087 0.2043918 -0.024612354 -0.009575991 0.033129316 -0.0023757813 -0.20526579
-0.2589195 0.15704754 0.0601846 0.20052221 0.10158082 0.058226895 -0.12838477 0.0057955114
-0.06671726 -0.039092366 -0.08005901 0.30011058 -0.036776904 -0.26180115 0.2714516 -0.060915958
0.27949324 0.00020458583 -0.059776925 -0.12552041 0.08720274 -0.24993798 0.12850957 0.24281277
0.2853595 0.13866307 -0.10949699 -0.12350974 -0.23327474 0.013776206 0.024846336 -0.057038285
0.29536474 1.1906275 0.24619696 0.10104543 0.027165307 -0.044713456 -0.1396193 0.28472108
0.21416713 0.028663341 0.12851205 -0.23473011 -0.02208396 0.52696925 0.60849977 0.10068517
-0.1640761 -0.025602153 0.6130216 0.6114328 -0.19561914 0.010115675 0.66738373 0.09182222
-0.042432323 0.0004821365 -0.113104075 0.21284662 0.11093922 0.077297956 -0.21074414 0.009160239
0.45658913 0.0035625512 -0.18107498 0.15159415 -0.0695944 -0.1796281 0.40020347 -0.10914545
-0.23843877 -0.11098229 0.13159703 0.16169137 0.28524008 0.32287 -0.03338608 -0.11048749
0.056099523 0.18933696 0.42937967 0.09361535 0.3219962 0.09944882 0.15916367 -0.10451984
0.14936608 0.11580626 0.00559465 0.08341332 0.0056931446 0.17065862 0.22123235 0.24897036
-0.11040275 -0.20205006 -0.007797511 0.812661 -0.16192551 0.18707453 0.015742097 -0.12691012
0.024970021 0.15300342 0.18026368 -0.14913726 -0.115433425 0.028999507 -0.15822469 -0.06739156
-0.28181925 0.19231893 -0.1195936 -0.13596581 -0.09662465 -0.02011783 0.075573206 -0.07574043
-0.17244262 0.15822156 -0.05226079 -0.27162787 -0.25000447 -0.038798478 0.05384161 -0.01758738
-0.15043846 0.026295096 0.10562131 0.14970724 -0.28913915 0.21402043 0.16091354 0.03315411
0.030467093 0.13372646 0.12383263 0.06791171 0.30839697 -0.025064753 0.0546787 -0.35540566
0.375058 0.4077538 0.15395397 0.22395065 -0.06542924 0.24482428 0.39433149 -0.011617519
-0.4276527 0.515093 0.034268588 -0.171818 0.067805715 -0.28663737 0.17313497 0.1842484
0.23749097 -0.099630676 0.28042465 0.25633356 -0.26891667 -0.10735274 0.2086202 0.012582611
-0.00052752387 0.18137552 -0.0875437 -0.11539485 0.16165644 0.21161522 0.045696016 -0.14230803
-0.5133964 0.036618635 0.42460388 0.0811446 -0.14849687 -0.29184914 0.045525435 0.13950384
-0.37648535 -0.26178023 0.33900052 0.06895334 0.09550334 -0.31521213 -0.28024974 -0.2202398
0.29034382 0.26987293 -0.357856 0.045037143 0.14511603 -0.07941498 0.75051624 -0.10754755
0.044763867 0.020656725 0.22448917 0.028471217 -0.14371262 -0.08237712 0.11867813 0.40263036
0.4059771 0.52238876 0.6306756 -0.21181408 0.18806261 0.27395713 0.56954306 0.047517803
0.29309708 0.4499477 0.21685144 0.1149074 -0.017224163 -0.19957758 0.14220992 0.14038038

Concated_layer/dense_14/MatMul;Concated_layer/dense_14/Relu;Concated_layer/dense_14/BiasAdd f4 [128]
00000000: d35e d33f c8a1 febe 125a 2d3f 168f 2840
00000010: 8216 89bd 2c3e 4e3f 5f72 fc3e f93b e03f
00000020: c1f1 963d 6fa4 1640 156d de3f a0eb 07bf
00000030: 8aa8 463e 21ac 1cbf 18a7 1e40 11f7 61bf
00000040: df7e 3b40 dac6 0440 e45c 033e 20a4 67be
00000050: b080 ee3e 22af 0ec0 ce0d 81bf a8f7 333f
00000060: a843 0d40 90b0 503e ef4b f33f 7371 173f
00000070: d05e c23f 0fe0 adbf f725 913f d653 1d40
00000080: 6cc8 40bf b55b 103f 55e1 553f 4fdb e7be
00000090: dc71 4140 1d19 25bf 08fd c5bf f7b1 483f
000000a0: c382 88bd 8b23 103d 0b8e 403e 571d 9e3e
000000b0: 4d95 0fbf b383 343e ebcd 81bf 9f1e 8d3e
000000c0: a64e 0440 e03c 0640 adce a7bf 16fb 03be
000000d0: 14c3 0140 081b 1540 b349 963f 3d08 863f
000000e0: 301d b6bd 2b99 77be 344c 35bf 4db0 91be
000000f0: afdb 163e 6fb8 e53e bde2 ccbe 065c 0840
00000100: 5629 ec3f 765b 5ac0 f17e b23e 8700 f03d
00000110: 5133 3a3f c4ac f03f 235b 0e40 da7b 313d
00000120: 625e f23f d7cb ab3f 33e0 053f 4d4d 6b3f
00000130: d53c 4f40 cb8a c93f ae6b 9bbe df95 ed3f
00000140: 429a 9abd 21b7 cf3e d5a8 3abe d33d 463f
00000150: f236 943f e529 b3bf 8094 0f3f ea6b 42bf
00000160: a9ac cc3f 63d2 bebd ed86 19bd 0826 c43f
00000170: dc45 d6be 1412 b33c bee6 f13e 3305 cebf
00000180: bbc6 c9be 6b08 0ec0 3dc9 4340 85db 95bf
00000190: 3cb2 23bf f54b d8be 6754 403e 9057 9abe
000001a0: b4bc 0e3e 2770 af3f 6c21 b03e 7596 88bf
000001b0: 55bd 8e3f c3be df3f eded a6bf bc6b 333f
000001c0: 706f c8be cf84 0540 bd56 21be 35ca 1a3f
000001d0: 7b58 d93e 51fa 3fbf bc79 ec3e 059d ea3f
000001e0: 6259 0d3f a7a9 553f e0bc 43bf fb2a df3e
000001f0: 0d54 1240 ad08 133f 09c9 0440 3871 0940
1.6513313 -0.49732804 0.6771556 2.6337333 -0.06693746 0.80563617 0.49306008 1.7518302
0.0737033 2.3537862 1.7377039 -0.5309391 0.1940023 -0.6120015 2.4789486 -0.8826762
2.9296186 2.074637 0.12828404 -0.22621202 0.46582556 -2.2294393 -1.0082338 0.7029977
2.2072544 0.20379853 1.9007548 0.59157485 1.5185184 -1.3584002 1.1339711 2.458242
-0.7530582 0.56389934 0.83546954 -0.45284507 3.0225744 -0.64491445 -1.5467844 0.7839655
-0.06665566 0.035190146 0.18804185 0.3088176 -0.5608719 0.17628364 -1.0140966 0.27562425
2.0673003 2.0974655 -1.3109947 -0.1288875 2.0275316 2.3297749 1.1741241 1.0471264
-0.08892286 -0.24179523 -0.708194 -0.2845482 0.1473224 0.44867274 -0.40016738 2.1306167
1.8450115 -3.4118323 0.34862474 0.117188506 0.7273455 1.8802724 2.2243125 0.043331005
1.8935053 1.3421582 0.52295226 0.91914827 3.238088 1.5745481 -0.3035559 1.8561362
-0.075489536 0.40569404 -0.18228467 0.77438086 1.1579268 -1.399716 0.5608597 -0.75945914
1.5990192 -0.09317472 -0.03748219 1.5324106 -0.41850173 0.021859206 0.47246355 -1.6095337
-0.39409432 -2.2192638 3.0591576 -1.1707617 -0.6394384 -0.4224545 0.18782197 -0.3014493
0.13939172 1.3706101 0.344005 -1.0670916 1.115153 1.7480091 -1.3041359 0.70086265
-0.3914752 2.086231 -0.15755744 0.60464793 0.42450318 -0.7499133 0.46186626 1.8329169
0.5521451 0.83461994 -0.76460075 0.4358748 2.28638 0.57435113 2.0747702 2.1475353

Concated_layer/batch_normalization_10/batchnorm/mul_1;Concated_layer/batch_normalization_10/batchnorm/add_1;Concated_layer/dense_14/MatMul;Concated_layer/dense_14/Relu;Concated_layer/dense_14/BiasAdd f4 [128, 32]
00000000: 98d2 9abc 18d2 16c0 f9be c2bb 50ab bbc0
00000010: f8be ce3c 666d fd39 f804 56bc 5593 2bbd
00000020: d034 51bc 9112 efbc c847 a8bc 0b85 9ac0
00000030: 7d0d 32bd d05e 2ebd e5d5 c03b e5e4 cabc
00000040: ac25 6fbc 46e0 bfbc 4b91 fa3a df49 aebb
00000050: 9a92 61c0 35d1 9fbb a02e a2bb 563c e83a
00000060: 975e 28c0 a1db 283c afd0 cc3c 05c9 a3bf
00000070: 0df7 71c0 41a2 a8c0 3ea8 a8bc 2307 53bb
00000080: b487 133c 38ed 8440 9d57 4dbd 5f7f 1c40
00000090: 976e 2ebd 7ec8 4bb7 7e35 a7bc 1401 c53d
000000a0: 0b2f d6bc b56e 29bc 5eaa 38bd 572b 6440
000000b0: 3045 bcbc 8fb7 2cbc 4b97 ffbc f24b d7bc
000000c0: 5eba 28bc f93f 8a3c e9c1 23bc f0b6 463c
000000d0: f9f5 63c0 2754 febc 62c6 c23c 9901 02bd
000000e0: 86bb 7e3e 6454 013e ad05 f93a 9d35 cd40
000000f0: e7bc a4c0 db36 4440 05a4 343d f744 3abc
00000100: 0b0a a2bc e104 a9c0 a6d1 973c 2c2c 7140
00000110: e1c3 173c 14a3 b7b9 68c4 603a 7740 12bd
00000120: 41e3 44bc 656d ad3b e7a4 203c d54e 53c0
00000130: ae97 0339 c523 f83c 85ee 103c fcb7 3a3c
00000140: 7c94 653c 2641 c8bb 0986 153b d9c6 09bc
00000150: 3dd6 dbbf cc5e 7b3c b99a fb3c bf58 af39
00000160: 6123 45c0 5c96 8abb 9e94 3d3a 9b27 3640
00000170: 50cf 3640 e94b b7c0 660c 8ebc 08b7 8f3c
00000180: b837 f9bc 0bbb 84bd 2312 fbba f3fa a940
00000190: 9bcd 133d 1027 b538 a188 84b9 7824 68bd
000001a0: 1d57 e03c 7c69 bbbc fe2c 4dbb c9c5 b5bf
000001b0: cc82 11be 8bfa d2bc c764 2cbc 2a95 8ebc
000001c0: bb35 e9bc a6cf 6bbd 0246 edbb e9be 3cbc
000001d0: f3d5 5dc0 24a1 96bc 4ce0 2cbc 38b4 ce3c
000001e0: cbdd 09c1 4b5b 843c 92ce 95bb 846b d93d
000001f0: d202 8240 9ee6 8240 7dbc 9fbd 3988 d03c
00000200: d7c3 b33b e106 00c0 b8e3 513c 2e1a 25c0
00000210: fc01 fb3c d1a6 4c38 dbd4 04bc 1276 afbc
00000220: 4dfc 9a39 3f67 20bc 5977 cc3c 460c 423d
00000230: 09f8 5cbc d5ba d03c c93a b73c 0a49 023a
00000240: 0685 38ba 0230 763c b669 44ba cf11 0dbb
00000250: 47cc 803f 85d9 813c b17e f23b 8efd c73c
00000260: a396 92bf 1c2c 313c 0cfd 153c add5 163f
00000270: d9a9 1a3e ff59 3c40 7cde d4bb 7c7e d73c
00000280: 62ef 44bc 5660 73c0 edb8 b5bc f6e2 aa40
00000290: e5cb 4abc d76d 4839 0b4a d4bc d135 d0bb
000002a0: 57dc 85bc c626 8dbc ec72 73ba 47eb 3abd
000002b0: 976d 92bb d8bf c439 a554 9f3b a84f f83b
000002c0: 6e5c 1cbd df5f 563c f3d9 0a3c 395e 19ba
000002d0: a685 05c0 4297 e4bc 2fd0 d5bc 73e5 85bc
000002e0: 1912 dd3f 1aad 37bd a26c d33c 5fef cc3f
000002f0: 0302 d0c0 c962 ddbf 8eb5 6bbc e6bd d939
00000300: 839c 6d3b ecf9 0940 9555 803c 8463 be40
00000310: 6911 a83b 8ea3 fdb8 9801 e9bb a2ee 54bd
00000320: e4aa 653b daed c5bc ba87 f3ba 5967 9940
00000330: 09bb d2ba bbf8 833d 9912 af3a 7c66 8ebc
00000340: 1b2e a33c 6692 b83b 0bc7 8f3c a63a 383b
00000350: 8cc0 adc0 a5dc 1f3c 3cb4 cb3c 90c0 9abb
00000360: bb83 0bc0 e355 e03a 1dec 9c3c 09c1 14bf
00000370: 0ae2 ac3e 45a5 a5c0 134f 86bc 0fa7 103c
00000380: 2f6d 153b 4de2 42bf dd05 9cbc bea8 6c40
00000390: eb2a 71bc b661 63ba f84e 61bd f1d9 c63b
000003a0: a138 913b 213f 15bd f5eb b2bc d21a 623f
000003b0: ebb4 0d3c 9cfb 22bd ab4c 0fba e8f7 92bc
000003c0: c1e9 83b9 b8ce 9bbb 800e 323c a110 2a3c
000003d0: aaef 7cc0 be78 85bc dc7c 863c 093c b43b
000003e0: 4931 dabf 8496 7cbc a496 97bc 5716 32c0
000003f0: fa1e 48be 5997 8340 f3f5 313c 3674 02bc
-0.018899247 -2.356573 -0.005943176 -5.864662 0.025237545 0.0004833743 -0.013062708 -0.041888554
-0.012768939 -0.029183658 -0.02054204 -4.8287406 -0.043469895 -0.04257089 0.005884873 -0.024767349
-0.014596384 -0.023422372 0.0019116787 -0.0053188647 -3.5245728 -0.0048772343 -0.004949406 0.0017718177
-2.6307733 0.01030627 0.025001852 -1.2795721 -3.7807038 -5.2698064 -0.020588037 -0.0032200299
0.009004522 4.1539574 -0.050132383 2.445274 -0.042585935 -1.2146424e-05 -0.02041125 0.09619346
-0.026145479 -0.010341336 -0.04508435 3.5651453 -0.02298221 -0.010541811 -0.031200072 -0.02628133
-0.01029834 0.016876208 -0.009994962 0.012128577 -3.561888 -0.031045986 0.023776237 -0.031739805
0.24876222 0.12629849 0.0018998884 6.4127946 -5.1480594 3.065848 0.044101734 -0.011368982
-0.01978018 -5.2818456 0.018532585 3.768321 0.00926301 -0.00035025983 0.00085741887 -0.03570601
-0.012017072 0.005292582 0.009804941 -3.3016865 0.00012549639 0.030290494 0.00884593 0.011396404
0.014012452 -0.006111282 0.0022815487 -0.008409225 -1.7174755 0.015342426 0.030713426 0.00033444722
-3.0802844 -0.00422935 0.00072319235 2.8461673 2.8564034 -5.7280164 -0.017339896 0.01754333
-0.030422077 -0.06480988 -0.0019155185 5.3118834 0.036084753 8.6380285e-05 -0.00025278798 -0.056675404
0.027385289 -0.022877447 -0.0031307335 -1.4200984 -0.14210051 -0.025754234 -0.010522074 -0.017405111
-0.028468003 -0.057571076 -0.0072410116 -0.011520126 -3.4661834 -0.018387385 -0.010551523 0.02523242
-8.616649 0.016156813 -0.0045717442 0.1061621 4.0628443 4.0906515 -0.07799623 0.025455581
0.0054859924 -2.0004199 0.01281064 -2.579723 0.030640595 4.879275e-05 -0.008107389 -0.021418605
0.00029561148 -0.009790241 0.024959253 0.047374986 -0.013486871 0.025479713 0.022366898 0.000496999
-0.0007038865 0.015026094 -0.0007492559 -0.0021525507 1.006234 0.015850792 0.0074003567 0.024412896
-1.1452221 0.010813739 0.009154569 0.58919793 0.15103854 2.942993 -0.0064962488 0.02630543
-0.012019964 -3.8027549 -0.022182906 5.340205 -0.012377714 0.00019114405 -0.025914213 -0.0063540717
-0.016340418 -0.017230403 -0.0009286839 -0.045634534 -0.0044686305 0.00037526968 0.0048623853 0.007577855
-0.038174085 0.013084381 0.008474815 -0.0005850527 -2.0862823 -0.027904157 -0.026100246 -0.016344761
1.7271148 -0.044842817 0.025808636 1.601055 -6.5002456 -1.7295772 -0.014386548 0.0004153095
0.0036256618 2.155879 0.015665809 5.949648 0.0051290286 -0.000120944445 -0.0071107857 -0.05198539
0.0035044486 -0.024161268 -0.0018579878 4.7938657 -0.0016077469 0.06443926 0.0013356983 -0.017382853
0.019919446 0.0056326864 0.017550966 0.002811113 -5.4297543 0.009757196 0.024866216 -0.0047226623
-2.1799152 0.001711544 0.019155556 -0.5810705 0.33766204 -5.1764245 -0.016395127 0.008828892
0.0022800674 -0.7612656 -0.019045765 3.6977992 -0.014719705 -0.0008673923 -0.05500695 0.006068461
0.0044317995 -0.036437158 -0.021841029 0.88322175 0.008649091 -0.039790735 -0.00054664415 -0.017940477
-0.00025160427 -0.0047548674 0.010867715 0.010379941 -3.952128 -0.016292926 0.01641696 0.005500321
-1.7046291 -0.015416745 -0.018504448 -2.7826135 -0.19543067 4.112225 0.0108618615 -0.007962277

Concated_layer/dense_15/MatMul;Concated_layer/dense_15/Relu;Concated_layer/dense_15/BiasAdd f4 [32]
00000000: 497d 7340 7efe bfc0 6230 1e3f 7268 37c0
00000010: f543 3e40 6908 5c40 5ecc 933f 43cc 8b3f
00000020: ab68 3c41 a49b 2541 2016 3bc1 ea86 c741
00000030: 0ffa 0641 4503 7040 ed8b b63f 5ff9 3341
00000040: 72be e840 c93a d540 1519 2bc1 3b28 9cc0
00000050: f9aa 1241 8a40 1740 f1f2 81be 48c9 c2bf
00000060: 0932 c740 698d 3f41 6ff4 e63f baf0 f8be
00000070: 3ba2 f8c0 0dea a740 08fc 0340 012b b1c0
3.8045218 -5.999816 0.61792576 -2.8657498 2.9728978 3.4380133 1.1546743 1.0921711
11.775554 10.350498 -11.692902 24.940876 8.436049 3.7501996 1.4261452 11.248382
7.2732477 6.663426 -10.693624 -4.879911 9.166741 2.3633142 -0.25380662 -1.5217676
6.224858 11.972024 1.8043345 -0.4862116 -7.7698035 5.2473207 2.0622578 -5.5364995

Concated_layer/batch_normalization_11/batchnorm/mul_1;Concated_layer/batch_normalization_11/batchnorm/add_1;Concated_layer/dense_15/MatMul;Concated_layer/dense_15/Relu;Concated_layer/dense_15/BiasAdd f4 [32, 128]
00000000: 2cc5 2e3e f0a4 d33d f621 b43d 43fa 813d
00000010: 7a5b e0bd a675 813d f1e1 57be bc85 9dbe
00000020: f472 c8bd c112 a4bd 9619 133e ea1a 9fbd
00000030: 37c0 97bd e8d3 18bd 0dea 38be b462 94bd
00000040: 6afb f93c 591e 783d 06b4 38be 5434 aabd
00000050: 7fba ec3c 4c3e 4abd b577 fbbd 6697 d9bb
00000060: 3bc2 393e f559 d1bd 1044 29be c1ae 02be
00000070: 8b7c df3d ff83 ad3c 936f 7f3d e42e bf3c
00000080: 1d77 12be 32a0 913d acde a4be 6587 c7bd
00000090: 26f7 3bbe c75b 42be e248 01be ab76 8e3d
000000a0: f33f 02bd a3a0 3bbe a7ef 45bd bf63 1abe
000000b0: 6dc5 d13a fb01 5ebd 1ab9 843d 7be1 d33d
000000c0: 513a adbc 10e4 6e3e c872 b0be f41c 2cbe
000000d0: 4373 583e b865 083e 23f1 82be 390d e23c
000000e0: 45c9 eebb 7602 51bb d0b7 433d 99a6 eabb
000000f0: 0025 59bd dee5 d7bc b118 8cbc 5a79 99bd
00000100: 906d e9bd 2fe8 493d ea82 58bd 7317 893d
00000110: 3958 88bc 4362 17be 5fa9 583c 8057 803c
00000120: 8829 1e3e 377c 06bd 860a c7bd 74b4 b6bd
00000130: e2d0 92bd 6295 acbc c3a6 9dbd b0fd 6abe
00000140: d6b4 003e 3e3b b8bd 3c44 dd3c 9302 68bd
00000150: 3a13 c53d 3002 633d 648c 4a3e def3 bc3d
00000160: 5541 99bd cf95 f9bd 6a40 e5bd 5e8b f1bd
00000170: c6bd d43b e5a7 99bd d4d9 01bd 0b2f 4d3d
00000180: f5b4 dbbd 65a4 8abe 1a08 523d 38e0 6d3c
00000190: c0c6 9bbd c2c9 b0bb dd15 00bd 953d 773a
000001a0: e48a 07be 161a 08bf 5d14 dfbd 1a8a 1fbe
000001b0: 1f76 a1be c1ac 803e 501c 44bd daa3 b43c
000001c0: b619 d8bd ebdd 47be 7c7f 01bd 92f3 a5bd
000001d0: 3a05 3a3d eef9 55bd bb02 95bd 6c09 5ebd
000001e0: 4513 c33d 2c4c edbd d25b 9d3c 1339 533e
000001f0: 979a fcbc 5025 873c 3196 a03e 0244 69be
00000200: bb97 483e 358c 883e e3b6 b93d ff6a 80bd
00000210: d1d9 2e3d f0c9 f8be f777 a2bd c835 c83e
00000220: 8932 e4bc a40c 7d3e 90ae c43e 4bea 6abd
00000230: a6cc b73d 895c 94b9 5c7e 7a3e 1056 003e
00000240: 3681 403e 6614 003d f877 8abd 7ea5 8ebc
00000250: 84c5 5f3d 05ea 47bd 1dba 9f3d 4112 a0b9
00000260: d5c0 203e ec27 5bbd a1f3 26bc 7f93 1d3d
00000270: d137 9fbd e220 b3bc a94d 79bc cb3c d33d
00000280: de65 0dbc 9ad6 823d c5ea 02be 19ed 4fbd
00000290: 83de 3c3d e1fc a7be 867a 3abd c00f 1bbe
000002a0: d11a 963d 1e42 053d c699 3f3c f998 243d
000002b0: bc19 633e 9628 763d 0597 9ebd d10d 15be
000002c0: cce7 213e aabf 1f3e 432f ea3d 252e 103c
000002d0: dd26 243e 28ed 413e f5be 32be 9123 053f
000002e0: 75d3 abbd 2d68 0b3e 6f18 9c3b af23 b7ba
000002f0: d2f7 b53d e8d8 0abe b495 db3d dc34 5d3d
00000300: af57 9c3e 47ea 0c3d 784f 3f3d 76a0 9a3d
00000310: 3c79 54bc 9385 4e3c 1d24 2e3e 96b1 cc3c
00000320: 2f28 27bd cfb6 90bc 57c2 d3bd bd4e 223e
00000330: 28b5 2d3e 5ddb 333e 07e0 613d d65d 803e
00000340: 6212 203d e0eb cfbd 714e 6a3d 3f40 32be
00000350: 77ee a4bc 59d1 3c3e a490 d4bb 8a37 fd3c
00000360: e650 043d bfe3 dbbd 7cc7 b33c bd02 d2bd
00000370: 4aa6 cabd 05ab d3bd 8920 bebd 6b8a 673d
00000380: ba6b aabd 6628 c7bd a470 853e dd19 2bbe
00000390: 1355 ae3c 8973 013e 8c9a f03d c556 03be
000003a0: 4d45 70bd 08c3 ff3e aa03 e33c 975d 193e
000003b0: 0528 b5bc fa61 743d 1fd1 1cbd e9da 62bd
000003c0: 7d5c bfbd f493 1abd 6514 22bd ba7e 2cbe
000003d0: cdbe a3bd 8eec d9bd 0229 09bd d375 283e
000003e0: 7776 843c 8a6c 85bd 51be 1c3d 0f6f c83d
000003f0: 7f97 1f3d 99d7 513d ce7f 03bd c23c e7bd
0.17067403 0.10334194 0.0879554 0.06346562 -0.10954948 0.06321268 -0.21082284 -0.30766094
-0.097875506 -0.080113895 0.14365229 -0.07768805 -0.07409709 -0.037311465 -0.18058033 -0.072453886
0.030515391 0.060575817 -0.18037423 -0.08310762 0.028897522 -0.049375817 -0.12278692 -0.0066403626
0.181405 -0.10222236 -0.1652987 -0.12761976 0.109124266 0.021181105 0.062362265 0.023337789
-0.1430325 0.07110633 -0.32201135 -0.09742621 -0.18355998 -0.18980323 -0.12625459 0.06956228
-0.031799268 -0.18322997 -0.048324253 -0.15077113 0.0016004272 -0.054201107 0.06480618 0.10345741
-0.021145971 0.23329186 -0.3446257 -0.1680792 0.21137719 0.13320053 -0.25574598 0.027594196
-0.007287177 -0.0031892336 0.04778272 -0.0071609733 -0.0530138 -0.026354726 -0.017101618 -0.07493849
-0.113978505 0.049293693 -0.052859224 0.06693926 -0.01664363 -0.14783578 0.013223975 0.015666723
0.1544553 -0.032833304 -0.09718804 -0.089211375 -0.071687475 -0.021067325 -0.07697823 -0.22948337
0.12568983 -0.089956746 0.027010076 -0.05664308 0.09622808 0.055422008 0.19780117 0.092262015
-0.07483164 -0.12186777 -0.11193927 -0.1179416 0.0064923493 -0.075027265 -0.031701878 0.05009369
-0.10727874 -0.27078548 0.051277258 0.01451879 -0.07606268 -0.005395145 -0.03127085 0.00094314787
-0.13236576 -0.53164804 -0.10892556 -0.15580025 -0.31535432 0.251318 -0.047878563 0.022050787
-0.10551779 -0.19518249 -0.03161572 -0.08103098 0.04541514 -0.052240305 -0.072759114 -0.054208204
0.0952516 -0.11586794 0.019208822 0.20627241 -0.030835433 0.016497284 0.31364587 -0.22779849
0.1958913 0.2666947 0.09068086 -0.06270408 0.042688195 -0.48591566 -0.07933038 0.39103532
-0.027856128 0.24711853 0.3841443 -0.057352345 0.089745805 -0.00028297704 0.24462265 0.1253283
0.1879929 0.031269453 -0.067611635 -0.017412897 0.054631725 -0.048807163 0.0779917 -0.00030531178
0.1569856 -0.05350487 -0.010189922 0.03847074 -0.07774318 -0.021866266 -0.0152162695 0.1031433
-0.008630244 0.06388588 -0.1278487 -0.050763223 0.04611064 -0.3281012 -0.045527004 -0.15142727
0.073293336 0.032533757 0.011694377 0.04018495 0.22177786 0.0600973 -0.077436484 -0.14556052
0.1581108 0.15600458 0.11434796 0.008800064 0.1603045 0.18938124 -0.17455657 0.52007395
-0.083899416 0.13613959 0.004763655 -0.0013972427 0.088851586 -0.13559306 0.10721913 0.05400549
0.30535647 0.03440311 0.046706647 0.07550137 -0.012968358 0.012605089 0.17005964 0.024987023
-0.040809806 -0.017665295 -0.10339802 0.15850349 0.16963637 0.17564149 0.05514529 0.2507159
0.03908003 -0.101524115 0.057203714 -0.1740732 -0.02013324 0.18439235 -0.006486969 0.030910272
0.032303713 -0.107367985 0.021945707 -0.102544285 -0.09894998 -0.10335354 -0.09283549 0.05652849
-0.083213285 -0.09724502 0.260625 -0.16709085 0.0212808 0.1264173 0.117482275 -0.12826069
-0.05865984 0.49953485 0.027711708 0.14977108 -0.02211381 0.05966375 -0.03828537 -0.05538455
-0.093438126 -0.037738755 -0.03957023 -0.16845217 -0.07995377 -0.10640822 -0.033486374 0.16451196
0.01616977 -0.06514843 0.038267437 0.09786808 0.038962837 0.051231 -0.032104306 -0.112908855

Concated_layer/dense_17/MatMul;Concated_layer/dense_17/Relu;Concated_layer/dense_17/BiasAdd f4 [128]
00000000: fd02 9440 2783 1bc0 a98e 41c0 6389 c4c0
00000010: f691 0fc0 ce5a d73f 4827 3040 d422 c7c0
00000020: b063 3c3f e125 f8c0 3219 bbc0 d59f cdc0
00000030: 76a2 1740 a8a9 c8c0 3670 1840 d813 9e3f
00000040: bb56 04bf a495 b33f 6988 8ec0 09fc 4040
00000050: 4f19 3040 dbda e6c0 46cc 8140 b3da b2c0
00000060: 9aec 6d40 24c8 3e40 3b23 3f3f 1157 7340
00000070: c0ab 6440 5eb3 f0c0 fe23 2cc0 d73e c4c0
00000080: e877 d9c0 c802 4a40 e9f8 5740 34df 5c40
00000090: 5af0 7940 4b18 89c0 e316 0540 f508 0640
000000a0: 1057 7440 c15b bdc0 63ee 60bf 416c 6940
000000b0: 3c93 1240 0194 08c1 2ac4 2140 47b2 4d40
000000c0: 83c4 e3c0 6c7c 0040 122d 2a40 dc7d 8840
000000d0: f7ac 3940 2947 2240 fdd4 cfc0 4e92 d33f
000000e0: a3c8 6d40 ba19 6640 81ed a040 39ff 1e40
000000f0: 395b 8b3f 044d 2ec0 915f 6240 6b53 bec0
00000100: 3454 4740 9556 863f bffe 8dc0 33ca b8c0
00000110: 4abd cac0 8d6a 43c0 ceea 55c0 a750 ebc0
00000120: 6620 e1c0 8265 3c40 2d0b 3d40 a34c 2940
00000130: 5af6 cfbf fde3 a3c0 ec26 a9bf e4d2 5c40
00000140: 0b77 3140 73ce 75c0 a4f2 e1c0 f627 56c0
00000150: 4348 b8c0 3ee5 9340 3bf0 4740 504e fa3f
00000160: ee37 aac0 b565 5f40 913b e4c0 8b13 02c1
00000170: b025 8640 0f8f 8f40 417d e7c0 563c 7240
00000180: fc2b cfc0 7cda 9340 f66a a1c0 eff4 09c0
00000190: 9ba9 5040 243c b0c0 28cc 2340 a20a 4e40
000001a0: 54b2 c1c0 9fc6 8640 bfae 8a40 987d 9a3f
000001b0: 7c31 1641 c65e 73be a0ba cbbf c607 1abf
000001c0: 0fc5 e4c0 8d4f bfc0 f520 f1c0 6db3 6fc0
000001d0: df17 43c0 cdd3 6d3e 15df e7c0 4189 cc3f
000001e0: 748e 9cc0 d92b aac0 005d 9cc0 0e9d 7e40
000001f0: 27b7 d3c0 f90b 7740 0624 0d40 c594 fb3f
4.625365 -2.42988 -3.0243323 -6.141771 -2.2432837 1.6824586 2.7523975 -6.2230015
0.7358961 -7.754624 -5.8468256 -6.4257607 2.3692908 -6.27071 2.3818488 1.2349806
-0.5169484 1.4030042 -4.4541516 3.015383 2.7515447 -7.2142158 4.0561857 -5.5891967
3.717566 2.9809656 0.7466313 3.802189 3.5729828 -7.5218954 -2.6896968 -6.132671
-6.795887 3.1564198 3.3745673 3.4511232 3.905295 -4.2842155 2.079522 2.0942967
3.8178139 -5.9174504 -0.8786375 3.6472323 2.2902365 -8.536134 2.527598 3.2140062
-7.1177382 2.007594 2.6590009 4.2653637 2.901182 2.5355933 -6.4947495 1.6529024
3.715371 3.5953202 5.028992 2.4843276 1.0887214 -2.7234507 3.537083 -5.947683
3.1145144 1.0495173 -4.437347 -5.7746825 -6.3356066 -3.0533783 -3.3424563 -7.3535953
-7.035205 2.9436955 2.953807 2.6453025 -1.6247056 -5.1215806 -1.3215003 3.4503717
2.7728908 -3.8407257 -7.060869 -3.346189 -5.758821 4.6217337 3.1240375 1.9555149
-5.3193274 3.4905827 -7.1322713 -8.129771 4.1921005 4.486213 -7.23404 3.7849326
-6.474119 4.6204205 -5.0443068 -2.1555746 3.260352 -5.5073414 2.5593357 3.219399
-6.0530186 4.2117457 4.3338313 1.2069578 9.387081 -0.23766622 -1.5916328 -0.6016811
-7.149055 -5.978461 -7.535273 -3.7453263 -3.048332 0.23225327 -7.2459817 1.5979387
-4.8923893 -5.3178525 -4.8863525 3.9783359 -6.6161075 3.8601058 2.2053237 1.9654776

Concated_layer/batch_normalization_12/batchnorm/mul_1;Concated_layer/batch_normalization_12/batchnorm/add_1;Concated_layer/dense_17/MatMul;Concated_layer/dense_17/Relu;Concated_layer/dense_17/BiasAdd f4 [128, 64]
00000000: 74dc 43c0 a9b1 cebb 9456 b53a b9b6 bdbb
00000010: 3326 0c40 1d72 d33a 9a61 f33a f18e 42bb
00000020: 5250 393c 6cf7 403b 1dd9 0340 848b 17bb
00000030: e027 94bf 6980 b3ba 7e1c c8bb fa9a febb
00000040: 4aa3 973b bd17 553f 2925 1cbf 6943 56c0
00000050: cb20 9bc0 6806 d4bb 7836 ebbd 04bb dc3a
00000060: cce7 99bb ad94 24c0 cef3 3c3b 8133 1fbb
00000070: c61f b9bb 8185 cfbf 460d e1b9 6f3b d43b
00000080: 2fca e939 cbd6 9abf 2569 b1ba 365d 23bf
00000090: 1232 6938 f669 83bb 9114 e9b9 0d58 3a3b
000000a0: 94b2 ebba 8ebc 1dbb 4f5e f2bb 8c1a 13bb
000000b0: de98 c3bb 1e0f d0bb 6651 8040 cbc9 4040
000000c0: 9f98 25c0 21a1 8a3b 4f20 0c40 e18a 24bc
000000d0: 3ca6 3640 4905 4abc 5ac2 0440 c9e4 49bc
000000e0: b1a7 66bb 265c 043c 5127 7940 805f 9cbb
000000f0: c3a8 ad40 e0bb 8ebf f910 e23a 556d 12ba
00000100: b6e2 6cbf b339 893a 5739 81bb c2ca 6fbb
00000110: 366b 4e40 e18a 0c3a cd7d 1e3c 54e3 143b
00000120: 080f 8d3a 3c9a 153c 2d06 21bf d21d fb3b
00000130: 4d10 7cc0 4ef6 d6bb 7c9f 3cbc 8cbf 3d3c
00000140: ac7f 2ebb b8d8 1f3f 0118 0640 fe55 2040
00000150: a8ea 9ac0 db8c 323c a9c4 4040 c001 353c
00000160: 4980 02ba c7b5 0bc0 912b 24bb f0ba 0c3b
00000170: 8d33 52ba e615 fd40 a3c8 d93a 551c 273c
00000180: 3c4b ec38 8cb1 85c0 3cf9 353c 52db 42c0
00000190: 5442 7fba c4e8 173c 5388 00bc 1e1c ff3b
000001a0: d153 a93c 0df1 fc3a 4bc3 2dbb 4d22 213c
000001b0: aac9 c63a 5a26 f5ba 42ae 42bf 16ad 883e
000001c0: 3ddd 853e 84a4 a43b 9d5f 8240 151a 4b3b
000001d0: 3b38 1640 da83 48bb 5be1 98c0 cb28 0abb
000001e0: fde8 ebba 9c6c c73a a82f 4040 9ff0 01bc
000001f0: 2583 79c0 0575 6cc0 086d b13b 84d8 57bb
00000200: 1cc4 49c0 ce5a a33b 85e8 19bc b359 0c3b
00000210: 5a04 6cc0 78bc ecb9 1a9e 403a 75c9 293c
00000220: 85db 3bbc e11a b2ba c890 90c0 348d 453c
00000230: c36e 3dbf e4b4 38ba fdf1 283c 375f 10bc
00000240: 93b3 0ebb bd5e 00bf 8d07 ebbf 1dc2 9cc0
00000250: c46f 9fc0 0c56 ddba 97c0 08c1 4bc4 903b
00000260: 0170 da3b 5b32 29c0 21e5 c6ba f9a9 30bc
00000270: 0526 e339 1130 0ec1 3e7b ea3a 90b4 1bbc
00000280: 5b46 d039 35e9 c840 2003 aa3b 70ac 87c0
00000290: 5be8 d33b 2048 863b 4e49 55bc 580d 6bbb
000002a0: 9dcd 95bb 3c79 d439 f1c4 fdbb 9884 febc
000002b0: 3ded 0bbb 02b4 1a3c e5e2 a540 57c1 5640
000002c0: 2bf3 a640 4fb0 323b 1b0f 6ac0 610d 1e3c
000002d0: ef4a 6c40 847a 6238 e5b9 89c0 df6f 1e3c
000002e0: e744 c5ba a2de 623a 4302 283f c846 d33a
000002f0: 0f80 833f 8be2 6a40 9dfb 36bb 5882 d7bb
00000300: 2695 90bf 6243 0a3c d240 68bb 91eb 35ba
00000310: 31e8 2540 2a24 12bc e316 373b 3e2f cf3b
00000320: 8e58 2f3b 07d8 d43b 8dbe a4bf bcba 8e3b
00000330: 138e 3640 612f b5bb fd43 77bc 2779 193c
00000340: 7763 363b ada0 b13f eedb 9e40 b945 00c0
00000350: 465d 73bf 18df 1f3b 7989 9440 82fd 553c
00000360: 6df9 473c 1492 a3c0 2f1a 36bc cd97 ee39
00000370: 1597 03bb 0262 56c0 4de9 213c 4e3e f93b
00000380: e358 18ba 5e34 a540 e400 d139 c06f 6bc0
00000390: ce71 263c 5f52 223c 19c7 df3b fe8a 3f3b
000003a0: 60e7 12bd 95e5 e239 1358 183c d35a 54bc
000003b0: ace5 343c b22e 73ba 44cc a340 2e15 9740
000003c0: b6fe 42c0 f96f 98bb f85f 7ec0 d8e3 fb3b
000003d0: 82c8 0cc0 6618 603c fd94 efbf 44dd 373c
000003e0: 2412 3738 1b48 9839 07f8 0ec0 409f 1b3c
000003f0: cc99 8bbf f783 b2bf 3447 7a3b 2f61 6f3b
-3.0603304 -0.0063078 0.0013835006 -0.0057896045 2.1898315 0.0016132031 0.0018568516 -0.002968725
0.011310654 0.002944435 2.0601265 -0.002312393 -1.1574669 -0.0013694885 -0.006106912 -0.0077699395
0.00462762 0.83239347 -0.609942 -3.3478644 -4.847753 -0.0064704902 -0.114849985 0.0016840403
-0.004696822 -2.5715744 0.0028831842 -0.0024292173 -0.0056495396 -1.6212617 -0.00042925234 0.0064768116
0.00044591862 -1.20968 -0.0013535364 -0.63814104 5.559816e-05 -0.0040104343 -0.00044456546 0.002843383
-0.0017982298 -0.0024068686 -0.0073964964 -0.0022446243 -0.005969151 -0.0063494584 4.0099363 3.0123165
-2.5874403 0.004230634 2.189472 -0.010042877 2.8538961 -0.012330362 2.0743623 -0.012322613
-0.0035195167 0.0080786105 3.8930247 -0.0047721267 5.426851 -1.1151085 0.001724749 -0.000558575
-0.92533433 0.0010469466 -0.003943603 -0.003658936 3.2252936 0.0005361271 0.009673548 0.0022718506
0.0010761926 0.009131011 -0.6290005 0.007663467 -3.938495 -0.0065601235 -0.011512633 0.011581313
-0.0026626391 0.6244006 2.095215 2.5052485 -4.8411446 0.01089784 3.0120032 0.0110477805
-0.00049782224 -2.1829698 -0.0025050382 0.0021473728 -0.0008018546 7.908923 0.001661558 0.010199626
0.000112673704 -4.177923 0.011106785 -3.0446362 -0.00097373617 0.009271804 -0.007845002 0.0077853343
0.02066985 0.0019297913 -0.0026514109 0.009834838 0.0015166302 -0.0018703446 -0.76047146 0.26694554
0.26145354 0.0050244946 4.0741715 0.0030990888 2.347182 -0.0030596168 -4.777509 -0.0021081443
-0.0017998513 0.0015214863 3.0029087 -0.007930904 -3.8986294 -3.6946423 0.005414609 -0.003293545
-3.1525946 0.00498519 -0.009393816 0.002141577 -3.6877656 -0.00045153848 0.0007347778 0.0103629725
-0.011465912 -0.0013588333 -4.5176735 0.012057591 -0.73997134 -0.0007045998 0.010311601 -0.0088117635
-0.0021774515 -0.5014456 -1.8361679 -4.8986955 -4.9823933 -0.0016886606 -8.547019 0.004417931
0.006666184 -2.6436985 -0.0015174487 -0.010782712 0.0004332514 -8.886735 0.0017889512 -0.009503499
0.0003972527 6.2784677 0.005188361 -4.2397995 0.006466908 0.0040979534 -0.0130179655 -0.0035866108
-0.00457163 0.00040526118 -0.0077444245 -0.031069085 -0.0021351122 0.009442331 5.183947 3.3555505
5.2171836 0.0027265733 -3.657172 0.0096467445 3.6920736 5.39967e-05 -4.303942 0.009670227
-0.0015050442 0.00086543907 0.6562845 0.0016119117 1.0273455 3.670077 -0.002792097 -0.0065768175
-1.1295516 0.008438917 -0.0035439027 -0.0006939704 2.5922968 -0.008919755 0.0027937226 0.0063227704
0.0026755664 0.006495479 -1.2870651 0.0043557566 2.8524215 -0.0055293296 -0.015091893 0.009367264
0.0027830282 1.3877159 4.964347 -2.0042555 -0.950642 0.002439445 4.6417813 0.013060929
0.012205464 -5.111582 -0.011114641 0.00045507998 -0.0020079066 -3.349732 0.009882283 0.0076063043
-0.0005811585 5.1626425 0.0003986425 -3.6786957 0.010158969 0.009907334 0.006829154 0.0029227133
-0.035865188 0.0004327713 0.009298342 -0.012961107 0.011041086 -0.00092766725 5.118685 4.7213354
-3.0467963 -0.00465202 -3.9746075 0.007687073 -2.199738 0.013677692 -1.8717343 0.011222187
4.3647495e-05 0.00029045422 -2.2338884 0.009498417 -1.090631 -1.3946522 0.0038189413 0.0036526432

Concated_layer/dense_18/MatMul;Concated_layer/dense_18/Relu;Concated_layer/dense_18/BiasAdd f4 [512]
00000000: ba21 96bf e151 7e3f 3072 00bf 6d6f f53f
00000010: cfa6 163e b9be 01bd 3fac b8bf 28b7 18c0
00000020: a171 ca3f 688f 94bf 391e 78bf 91ff bc3f
00000030: d744 0840 31f7 0940 4820 69bf c156 14c0
00000040: 2d94 69bf 5002 dabf e435 2ac0 7bb8 0e40
00000050: 30d7 dbbf 148a 41bf 3000 f73f e3e6 0b40
00000060: 374e d03e a378 d2bf b248 1040 f104 b33e
00000070: 4547 1a40 c6db b93f 77ef 16c0 89dd 3fc0
00000080: 23b4 3940 1b75 4fc0 2804 bf3e 5e14 513f
00000090: c201 9dbe cc6c ed3f 42cb cfbf 4649 0abf
000000a0: 084a 03bf 0172 0a40 c77a f5bf 8ca8 f4bf
000000b0: ade6 54bf 8fc3 76bf f066 65be 8206 dbbf
000000c0: 5cb3 e83e 51be dc3f 54c6 cbbe cf37 11bf
000000d0: 142a 8b3f 4191 65be cf45 db3f 073c bebf
000000e0: 5d1f d53f 9f60 9dbf e6cc a7bf 8bef 95bf
000000f0: 3b14 413c b4c4 ef3d 5f8d 7a3f 1624 bcbd
00000100: 2a67 053f c66e aebf 66a6 e4bf a5d9 d4be
00000110: 940e 8ebf 9764 2940 c376 553f bf9f 35bf
00000120: 49da a73f 9f92 0d40 aebb 2340 bb7f 23c0
00000130: 43fd 4e40 dcf1 c3bf dcb6 953f 683c b3bf
00000140: 589b a7bf b269 833f f3bd d0bd 2bf6 2440
00000150: b6b4 f1be 7dc9 453f 00d1 643f 08de dcbd
00000160: f26d 3fbf 2ca0 3cc0 171b 3dbf da0e 30c0
00000170: 3b5b 3f40 e1b6 91bf 5cd0 c4be ba55 34bd
00000180: c96a a13f 398f 9c3d 6eb9 61bf 88a9 62bf
00000190: 0df7 1e3f 91c0 7cbf ef14 40c0 eef2 2ec0
000001a0: 897c 1fbf 8342 d9bf ddd6 92be 2329 05bf
000001b0: 317d 87be 8daa d4bf 50dd 12c0 a792 92bf
000001c0: 3657 2fbf 939f 31bf 0012 8b3f 1480 57bf
000001d0: 7bcd 2cbf 2462 acbf eb6b 00be fc70 0e3f
000001e0: 6cf5 ebbf 7e53 183e a08e a9bf 3084 163f
000001f0: 7e70 18c0 33cd 1bbf 4e29 04bf e65a d3bf
00000200: 8b2e 7abf 6ef5 8fbf 5e03 213f e8c4 913b
00000210: bf16 3e3a 9914 ef3d cda8 e13e b5ee 22be
00000220: 6023 d4bf 6fd7 16bf 9a15 3040 22c1 09c0
00000230: ea97 8dbf 5d0f 1bbf 6b13 04c0 6e9b 07c0
00000240: 250c 63bf 6902 9a3f 352e de3f d8c2 d13f
00000250: f40f cb3f 6ac4 0dbf 1368 0dbf 2eee 27bf
00000260: 4c55 b7bf 4d13 d6bf 2c05 babe 58c7 6ebf
00000270: 9f6a 793f 21e7 82bf e24d 273f b7a5 6abe
00000280: fe8c 89bf ff5a 89bf b2bd 02c0 4bcd 8b3f
00000290: a942 a33f dce7 1e40 0f1c c8bf 6368 e8bf
000002a0: 0399 38be 4e7d f6bf d58f 0dbf 35ce 9e3e
000002b0: 15a9 95bf 8442 11c0 349f 66bf a381 eb3f
000002c0: 845c 0c3e 5042 d2bf 072c b03e d10f 06bf
000002d0: 16da 82bf 4b2a 95bf d540 b63f d729 ed3f
000002e0: 717f de3e b822 e8be b929 0740 f561 08c0
000002f0: 1a22 d9bf 26de 3740 2d82 a3be 734a 4340
00000300: 5b58 8e3f dfd7 8cbd 8c77 1040 e325 29c0
00000310: ae2c c4be a63b c63e e24b c8bf b088 34bf
00000320: 79ac 1440 ae04 48bf f90c 0540 f071 81bf
00000330: ec70 3cbf 63d4 663f dd41 bdbe 7f9d 0abf
00000340: 7106 c4be 0734 94bf d48f 8cbf c227 c33f
00000350: f195 cfbd 8e5f ef3f b192 803f ace3 cb3f
00000360: ddab 11be 72e2 cbbf 1393 c5bf ed9e f13f
00000370: c220 36c0 aece 26c0 bd4b 823e 7759 c1be
00000380: da0b b2bf 7dba 40bf 3ba9 cabe 9b0a 3bc0
00000390: b585 15c0 cf64 a3bf a6e0 10c0 6f64 74bf
000003a0: 0fa0 bdbe e1c6 9a3f a75b 08bf 0f86 b0bf
000003b0: af12 3d3f 6e15 eebf 0556 d9be 297f 8dbf
000003c0: 6149 e0bf 0bc1 1bbf 1d3c c3be 5b63 bebf
000003d0: 9019 f93f 0074 003f d04a e5be 6b7b 3a40
000003e0: 122e 0140 0fb8 1e3f c591 5cbf 35b9 7ebf
000003f0: 049d 1dbf b8b5 c2bf ea18 2abf 35ca 66bf
-1.1729043 0.9934369 -0.50174236 1.917463 0.1471207 -0.031676028 -1.4427565 -2.386179
1.5815927 -1.1606264 -0.96921116 1.4765493 2.1292017 2.1557124 -0.9106488 -2.317795
-0.91241723 -1.7031956 -2.6595392 2.2300098 -1.7175045 -0.75601315 1.9296932 2.1859672
0.40684673 -1.6443065 2.254437 0.34964707 2.4106 1.4520195 -2.3583658 -2.9978964
2.9016197 -3.2415226 0.37307858 0.816717 -0.30665404 1.8548827 -1.6233904 -0.54018056
-0.5128484 2.1632082 -1.9178094 -1.9113936 -0.83164483 -0.9639215 -0.22402549 -1.7111361
0.4544934 1.724558 -0.3979975 -0.5672578 1.0872216 -0.22418691 1.7130679 -1.4862069
1.6650196 -1.2295111 -1.3109405 -1.1713728 0.0117846085 0.1170744 0.97871965 -0.0918657
0.5211054 -1.3627555 -1.7863281 -0.415723 -1.1098199 2.6467645 0.8338434 -0.7094688
1.311349 2.212074 2.55833 -2.554671 3.2342079 -1.5308185 1.1696429 -1.400281
-1.3094282 1.0266631 -0.1019248 2.577525 -0.47208184 0.7726057 0.8938141 -0.107845366
-0.7477714 -2.947276 -0.7386946 -2.7509065 2.9899433 -1.1383935 -0.38440216 -0.044027068
1.2610713 0.07644505 -0.8817357 -0.88539934 0.6209572 -0.98731333 -3.0012777 -2.7335773
-0.622994 -1.6973423 -0.28679553 -0.52015895 -0.264627 -1.6614548 -2.2947578 -1.1451005
-0.6849245 -0.69384116 1.0864868 -0.84179807 -0.6750104 -1.346745 -0.12541167 0.5564115
-1.8434272 0.148756 -1.3246651 0.5879545 -2.381866 -0.60859984 -0.51625526 -1.6512115
-0.9772727 -1.1246774 0.6289576 0.004448522 0.0007251314 0.116738506 0.44074097 -0.15911372
-1.6573296 -0.58922476 2.7513185 -2.152413 -1.1061985 -0.6057032 -2.0636852 -2.1188617
-0.88690406 1.2031986 1.7357851 1.6387587 1.5864244 -0.5537783 -0.5523693 -0.6559781
-1.4322906 -1.672464 -0.3633207 -0.93272924 0.97428316 -1.0226785 0.65353215 -0.22914778
-1.0746152 -1.0730895 -2.042828 1.0922025 1.2754718 2.4829016 -1.5633563 -1.8156856
-0.1802712 -1.925699 -0.55297595 0.31016698 -1.1692225 -2.2696848 -0.90086675 1.8398937
0.13707167 -1.6426487 0.3440859 -0.52367884 -1.0222805 -1.1653532 1.4238535 1.8528394
0.43456605 -0.45338988 2.1119215 -2.1309788 -1.6963532 2.8729339 -0.31935254 3.051419
1.1120714 -0.06877112 2.2572966 -2.6429374 -0.38315338 0.38717383 -1.5648158 -0.7052107
2.323027 -0.7813214 2.0789168 -1.0112896 -0.73609805 0.90167826 -0.36964312 -0.5414657
-0.38286164 -1.1578377 -1.0981393 1.5246508 -0.10136021 1.8701036 1.0044767 1.5928855
-0.14225717 -1.5928481 -1.5435508 1.8876625 -2.8457494 -2.6063647 0.2544841 -0.3776357
-1.3909867 -0.7528456 -0.39582238 -2.9225223 -2.3362858 -1.2765139 -2.2637115 -0.9546575
-0.37036178 1.2091943 -0.5326485 -1.3790911 0.73856634 -1.860029 -0.4244844 -1.1054431
-1.7522393 -0.60841435 -0.381318 -1.4874071 1.9460926 0.50177 -0.4478364 2.9137828
2.018437 0.619996 -0.86159927 -0.99501354 -0.6156771 -1.5211706 -0.66444266 -0.90152293
